double-dqn-model.pth (torch_old, 28560 bytes, 6 tensors)

hidden_layers.0.weight f4 [64, 37]
0	0xbda18e5c	-0.07888481
1	0x3e2bbf70	0.16772246
2	0xbece2c42	-0.4026814
3	0xbe902474	-0.28152812
4	0xbdf67694	-0.12034336
5	0x3db9f9c4	0.09080842
6	0xbe92453e	-0.28568453
7	0xbe767290	-0.2406714
8	0x3e2942e9	0.1652943
9	0xbded7fe4	-0.11596659
10	0xbeaa2082	-0.33227926
11	0x3e6fbc1c	0.23411602
12	0xbf36a3f7	-0.7134394
13	0xbd9e3a3b	-0.0772595
14	0xbe021ad2	-0.12705544
15	0x3dfab0c1	0.122407444
16	0xbe2d5e41	-0.16930486
17	0xbeb8daaf	-0.36104342
18	0xbddbeaf8	-0.10738176
19	0xbef84a29	-0.4849408
20	0x3e1cd182	0.15314296
21	0xbec82243	-0.3908864
22	0x3d89dafd	0.06731222
23	0x3deb0487	0.11475473
24	0xbe0c9205	-0.13727577
25	0xbdd34a71	-0.10316933
26	0xbec0d0d1	-0.37659314
27	0x3e09c183	0.13452725
28	0xbe123dc2	-0.14281371
29	0x3b41302d	0.0029478178
30	0x3d4b1626	0.04958167
31	0xbec3cbf9	-0.38241556
32	0xbed858f3	-0.42255363
33	0xbe58935b	-0.21149962
34	0xbe765db2	-0.2405918
35	0xbdc2081d	-0.09474204
36	0xbd84636a	-0.06464274
37	0x3e87de75	0.2653691
38	0x3d8e6323	0.069525026
39	0x3d23d127	0.039994385
40	0x3ddd02d3	0.10791554
41	0xbe25778a	-0.16158882
42	0x3ea2c143	0.31788072
43	0x3c0163ef	0.007897361
44	0xbf057568	-0.5213227
45	0xbedaf2af	-0.42763278
46	0xbf7b216d	-0.9809788
47	0x3e0449ab	0.12918727
48	0x3cb9bf7c	0.022674315
49	0xbdb5c69b	-0.088757716
50	0x3e411d9f	0.18858956
51	0x3dcfbf07	0.101438574
52	0x3e3453ee	0.17610142
53	0xbcd12bd6	-0.025533598
54	0xba62ecee	-0.0008656521
55	0xbc30b240	-0.010784686
56	0xbdfc8e96	-0.123318836
57	0xbc58769b	-0.0132118715
58	0xbe1fb2dd	-0.15595575
59	0xbe1a12ee	-0.15046284
60	0x3e4c4d35	0.19951327
61	0x3b783e32	0.0037878868
62	0x3dbd5c7a	0.09246154
63	0x3d35d04b	0.044388097
64	0xbd802944	-0.06257871
65	0x3b3f0d7c	0.0029152324
66	0xbe041d29	-0.12901749
67	0x3dd3a4d4	0.10334173
68	0x3dca6f88	0.09884554
69	0x3e45bce6	0.1931034
70	0xbcb2b500	-0.021814823
71	0x3d9b61db	0.07587024
72	0x3d46e149	0.048554692
73	0x3c929d64	0.017897315
74	0x3eb992ac	0.36244714
75	0x3d8b6b4c	0.06807575
76	0xbbc88148	-0.006118927
77	0x3caf9534	0.02143345
78	0xbed7cb5e	-0.42147344
79	0xbe977fd6	-0.2958972
80	0xbdc4f00a	-0.09616096
81	0x3e90baa1	0.28267387
82	0x3e1449f7	0.1448134
83	0xbe8251b1	-0.2545295
84	0x3d90df6c	0.07073864
85	0xbcddffe8	-0.027099565
86	0x3b8bb453	0.0042634397
87	0x3d794acf	0.06086236
88	0x3eef2e93	0.4671522
89	0xbec6b232	-0.38807827
90	0x3ea785f7	0.32719395
91	0x3e1a1eab	0.15050761
92	0x3dea5412	0.114418164
93	0x3efd529f	0.49477097
94	0xbeb75fdc	-0.35815322
95	0xbe59a637	-0.21254812
96	0x3de27819	0.11058063
97	0x3eb50709	0.3535693
98	0xbdfd53be	-0.12369488
99	0xbcc30295	-0.023804942
100	0x3e57834e	0.21046183
101	0x3e2c5cdb	0.16832297
102	0x3ddabf0b	0.1068097
103	0x3e10e0da	0.14148274
104	0xbe32e25e	-0.17469165
105	0xbdc4c6e7	-0.0960825
106	0x3be43825	0.0069647008
107	0xbe584f4c	-0.21124
108	0xbda84d66	-0.082178876
109	0xbd937012	-0.0719911
110	0xbd984f5f	-0.07437014
111	0x3e27a4e2	0.16371492
112	0xbeb01afa	-0.3439558
113	0x3e7a6402	0.24452212
114	0x3e60f8d1	0.21969916
115	0xbed9bfec	-0.42529237
116	0x3e460233	0.19336776
117	0xbe60e0af	-0.2196071
118	0xbea8a9e0	-0.32942104
119	0x3d9bff5c	0.07617065
120	0xbc5a6ed8	-0.013332091
121	0x3caa7e30	0.020812124
122	0xbd681c05	-0.056667347
123	0x3b62afd8	0.0034589674
124	0x3d02e0a5	0.03195252
125	0xbeb0a70b	-0.34502444
126	0xbd4578fe	-0.04821109
127	0xbe64f62d	-0.22359534
128	0x3d6941a3	0.05694736
129	0x3e2d394b	0.16916387
130	0xbdcd67f8	-0.10029596
131	0x3e337cc7	0.17528068
132	0xbe2dd8f3	-0.16977291
133	0xbe2d36b8	-0.16915405
134	0x3c72de0d	0.014823449
135	0xbefaacba	-0.48959905
136	0xbdaf6044	-0.08563283
137	0xbe959700	-0.29216766
138	0x3e2201df	0.15821026
139	0x3e9103d5	0.28323236
140	0xbd83efd0	-0.06442225
141	0x3e4c21df	0.19934796
142	0xbe1b67d0	-0.1517632
143	0x3cfde424	0.030992575
144	0xbda45d43	-0.08025601
145	0xbf4cb7f0	-0.79968166
146	0xbe1b1c83	-0.15147595
147	0x3b4b9162	0.0031061997
148	0x3bb2d3f8	0.0054573976
149	0xbe078862	-0.1323562
150	0xbe4f7183	-0.20258145
151	0xbe14edde	-0.14543864
152	0xbdb08dbd	-0.086207844
153	0x3e535348	0.20637238
154	0x3ec3b730	0.38225698
155	0xbebb052a	-0.36527377
156	0xbea08ba8	-0.3135655
157	0xbf14a610	-0.5806589
158	0x3dcd0eb0	0.10012567
159	0x3b39f6f5	0.0028375958
160	0xbda462f7	-0.080266885
161	0xbdac52ea	-0.08414252
162	0xbd3ae9b3	-0.04563303
163	0xbe886b15	-0.26644197
164	0x3d5b253e	0.053502314
165	0x3cae1a82	0.021252874
166	0x3da77fd3	0.081786774
167	0x3e8c6631	0.27421716
168	0xbea4ac9c	-0.3216294
169	0x3db9c858	0.09071416
170	0x3e289360	0.16462469
171	0xbd7e2b3f	-0.06205296
172	0x3ebf33bc	0.37344158
173	0xbbb9f7b1	-0.005675279
174	0x3d7f82a2	0.06238044
175	0xbd0197f5	-0.03163906
176	0x3e2a26ef	0.16616414
177	0x3eb90de4	0.3614341
178	0x3dbf3539	0.09336323
179	0xbd49ef73	-0.049300622
180	0xbe28fbe5	-0.1650234
181	0x3e2b0197	0.16699825
182	0x3e22f205	0.15912636
183	0x3d8eb0b6	0.06967299
184	0x3d55112d	0.052018333
185	0x3b8da081	0.004322112
186	0x3b40661c	0.0029357737
187	0xbdfa1d07	-0.12212568
188	0x3d5971e2	0.053087123
189	0x3dfe2a4d	0.12410412
190	0x3eb726d0	0.357718
191	0xbd643d74	-0.05572267
192	0xbf2d79d8	-0.67764044
193	0xbedd85d5	-0.43266168
194	0xc00e4945	-2.223222
195	0x3d187dfd	0.037229527
196	0xbe2fad69	-0.17155994
197	0x3da7241c	0.08161184
198	0xbe1cc0ea	-0.15307966
199	0xbd6deaf5	-0.0580854
200	0xbd26e58a	-0.04074625
201	0x3dbe3c9f	0.09288906
202	0xbd3dee97	-0.046370115
203	0x3d5838db	0.052788597
204	0x3cd07307	0.025445474
205	0x3d792775	0.060828645
206	0x3e205df6	0.15660843
207	0x3e1008ee	0.14065906
208	0x3c668508	0.014069803
209	0xbc9ecfb5	-0.019386152
210	0x3d3cf404	0.04613115
211	0xbca5b247	-0.02022661
212	0x3c3730d1	0.011181072
213	0x3d903681	0.07041646
214	0x3d72c444	0.059269205
215	0xbb8c175b	-0.004275245
216	0x3d5607a1	0.05225337
217	0x3ccdedf3	0.025137877
218	0x3e6a18fd	0.22861095
219	0xbddee32c	-0.10883173
220	0xbd924272	-0.0714158
221	0x3d4d952c	0.05019109
222	0x3da81f73	0.082091235
223	0xbe805007	-0.25061056
224	0xbc73fb63	-0.014891478
225	0x3e679d61	0.22618629
226	0xbe402a53	-0.18766145
227	0xbe390a4a	-0.18070331
228	0x3d7406da	0.059576847
229	0x3d6e4f2b	0.05818097
230	0xbb147b56	-0.0022656522
231	0xbd5976d6	-0.053091846
232	0xbdaae23c	-0.08343932
233	0x3ded9864	0.11601332
234	0x3e83a53f	0.2571201
235	0xbc3027fd	-0.010751721
236	0x3e912161	0.2834578
237	0xbd8b7b12	-0.06810583
238	0xbe9a279b	-0.30108342
239	0x3e764233	0.2404869
240	0x3db03a0b	0.08604821
241	0x3e81fad2	0.25386673
242	0x3da5b230	0.08090627
243	0xbc4d8799	-0.012544536
244	0x3e049f8b	0.12951486
245	0xbe01d33f	-0.1267824
246	0x3ed9db0e	0.42549938
247	0xbe31f622	-0.17379048
248	0x3e2b83ba	0.16749468
249	0xbcf74d47	-0.030188216
250	0xbc902191	-0.01759413
251	0x3cafc0c4	0.021454223
252	0x3d54b3fc	0.05192946
253	0xbc799483	-0.015233162
254	0xbe122a3c	-0.14273924
255	0x3df49188	0.119418204

hidden_layers.0.bias f4 [64]
0	0x3dcc8d2c	0.09987864
1	0x3d205250	0.039141
2	0xbe098c27	-0.1343237
3	0xbd8630c2	-0.065522686
4	0x3debf0ff	0.11520576
5	0xbc974fb7	-0.018470628
6	0xbdbf3629	-0.09336502
7	0x3c6fd898	0.014639042
8	0xbda101d9	-0.078616805
9	0xbe50ea44	-0.20401865
10	0x3c48353f	0.012219726
11	0x3e7c160f	0.2461779
12	0x3e12c8d7	0.14334427
13	0x3d575e44	0.052580133
14	0xbe22dec3	-0.1590529
15	0xbc2921de	-0.010323016
16	0xbd866fa8	-0.065642655
17	0xbe0a2b4b	-0.13493077
18	0xbd6bbb06	-0.057551406
19	0xbe466502	-0.19374469
20	0xbe2af2a5	-0.16694124
21	0x3d88f62c	0.066875786
22	0xbd9cf1b9	-0.076632924
23	0xbda5f2a1	-0.081029184
24	0xbcd89f69	-0.0264432
25	0x3de4bb12	0.11168493
26	0x3d06ef73	0.0329432
27	0xbe07bba5	-0.13255174
28	0x3d250cc2	0.04029537
29	0x3e2e0ace	0.16996309
30	0xbd58e221	-0.05295003
31	0xbe34d62a	-0.17659822
32	0xbd264e9e	-0.04060232
33	0xbd11ccbd	-0.035595644
34	0xbe643a08	-0.22287762
35	0x3d882f1d	0.06649611
36	0xbe1141df	-0.14185284
37	0xbc0ffb0c	-0.008787882
38	0xbd6e6c90	-0.058209002
39	0xbd70c271	-0.058779184
40	0xbe0df337	-0.1386231
41	0x3cb94a3e	0.02261841
42	0xbdde164a	-0.10844095
43	0x3dea8eae	0.11452995
44	0xbdb460e1	-0.08807541
45	0xbde8b35a	-0.113623336
46	0x3d37f83b	0.044914465
47	0xbd83bd53	-0.06432595
48	0xbe47932d	-0.19489737
49	0x3e0c54a7	0.13704167
50	0xbdd4b89d	-0.10386775
51	0x3cf337d2	0.029689703
52	0x3ce199a3	0.02753908
53	0xbd792d1b	-0.06083403
54	0xbe41a8c7	-0.1891204
55	0xbcc74191	-0.024323257
56	0x3d95fe10	0.07323849
57	0xbdb60950	-0.08888495
58	0xbd9c7805	-0.076400794
59	0xbd1cf1f4	-0.038316682
60	0xbd9be5a4	-0.0761216
61	0x3d619bb8	0.055080146
62	0x3dcd4707	0.10023313
63	0x3ddd8d78	0.10817999

hidden_layers.1.weight f4 [64, 64]
0	0x3db82263	0.08990934
1	0xbd76d403	-0.060260784
2	0x3e6df8e4	0.23239475
3	0x3e55d3fd	0.20881648
4	0x3cbddfb5	0.02317796
5	0xbe4a2cc9	-0.19743647
6	0x3d9761e6	0.073917195
7	0x3d4e6aa8	0.050394684
8	0xbdc7132d	-0.09720454
9	0x3e030870	0.12796187
10	0xbe1ebd95	-0.15502007
11	0xbebc472b	-0.36773047
12	0xbdd62b7d	-0.104575135
13	0x3d815747	0.06315475
14	0xbe40fb6f	-0.18845914
15	0x3e207aac	0.15671796
16	0xbdf64219	-0.12024326
17	0xbe4ae1bb	-0.19812672
18	0x3e26bda2	0.16283277
19	0x3d049948	0.032372743
20	0xbe188de1	-0.14897873
21	0xbe5569f0	-0.20841193
22	0x3e9bc261	0.30421737
23	0xbe521f4e	-0.20519754
24	0xbe949ed7	-0.29027435
25	0xbe513d64	-0.20433575
26	0x3e5a1440	0.21296787
27	0x3d51ab8c	0.05118899
28	0xbd56fb55	-0.052485783
29	0x3d63a33c	0.055575594
30	0x3db910a6	0.090363786
31	0xbd0a245d	-0.033726085
32	0xbd84c1db	-0.064822875
33	0xbd285a7b	-0.041101914
34	0x3b261c63	0.002534651
35	0x3defc86f	0.117081515
36	0xbcab28b9	-0.020893442
37	0x3d6d8e5f	0.057997104
38	0x3e915fca	0.28393394
39	0x3ca19307	0.019723428
40	0xbe5503cd	-0.20802231
41	0x3e7baaf0	0.24576926
42	0x3c9d6ec1	0.01921785
43	0xbe2d8d0e	-0.1694834
44	0x3e04fe51	0.12987639
45	0xbd63e1ce	-0.055635266
46	0xbecfe4fa	-0.40604383
47	0xbd1d074d	-0.03833704
48	0xbe30f7bf	-0.17282008
49	0x3a16ed1d	0.00057573785
50	0xbe7119aa	-0.23544946
51	0xbe5fc4aa	-0.21852365
52	0xbd84d81f	-0.06486534
53	0xbee2b3d9	-0.44277838
54	0x3d0106ca	0.031500615
55	0xbdb8cafc	-0.09023091
56	0xbddee918	-0.10884303
57	0xbed91e01	-0.42405704
58	0xbe2eff98	-0.17089689
59	0x3e37d097	0.17950664
60	0xbd47f79a	-0.048820116
61	0x3e824dcc	0.2544998
62	0xbf0a0043	-0.5390665
63	0x3dacf118	0.084444225
64	0x3e021259	0.12702312
65	0x3cef70f5	0.029228667
66	0xbeb8c7c4	-0.3608991
67	0xbcbfa2b3	-0.02339301
68	0xbe272788	-0.16323674
69	0xbcfa4882	-0.030552153
70	0xbf55ac53	-0.8346607
71	0x3e5f3389	0.21797003
72	0xbe1c2890	-0.15249848
73	0xbe2924a2	-0.1651788
74	0xbd07dd6e	-0.033170156
75	0xbd95a127	-0.07306128
76	0xbf0957ac	-0.536494
77	0x3e1ec364	0.15504223
78	0xbc98285a	-0.018573929
79	0xbc872da6	-0.016501259
80	0x3e5119b2	0.20419958
81	0x3bee7a20	0.007277742
82	0xbf321e4f	-0.695775
83	0xbefe233e	-0.49636263
84	0x3e63825f	0.22217701
85	0xbec158a5	-0.37762943
86	0x3e243041	0.16034032
87	0x3d63ce02	0.055616386
88	0xbd7fd6b1	-0.062460605
89	0xbcea794b	-0.02862229
90	0xbf084d55	-0.53243
91	0xbebac280	-0.36476517
92	0x3eb61b3c	0.35567653
93	0xbe8ba1d0	-0.2727189
94	0xbd78aa1c	-0.060709104
95	0xbee702df	-0.45119378
96	0xbe9b8237	-0.30372784
97	0x3d6a4546	0.05719497
98	0x3d5f90e2	0.05458153
99	0x3de7033d	0.112799145
100	0xbdd1dc6a	-0.10247119
101	0xbe3ccd7e	-0.18437764
102	0xbcb36523	-0.021898812
103	0xbe8b6900	-0.27228546
104	0xbd0fcc6d	-0.035107065
105	0xbd2026eb	-0.039099615
106	0xbeb26848	-0.34845185
107	0xbe43e1a2	-0.19129041
108	0xbe3e5494	-0.18586951
109	0x3e1d7bcf	0.1537926
110	0xbe646768	-0.22305071
111	0xbe01257d	-0.12611957
112	0xbf092b67	-0.5358185
113	0xbe840fcc	-0.25793302
114	0xbea92d40	-0.33042336
115	0xbe33774b	-0.17525975
116	0xbe272cf8	-0.16325748
117	0x3e5a8ba3	0.2134233
118	0xbbd7128b	-0.00656349
119	0xbeb4f6ac	-0.35344446
120	0xbcb0f351	-0.021600397
121	0xbd9d24a5	-0.07673005
122	0xbd9b1d4e	-0.07573949
123	0x3e7b8b99	0.24564971
124	0xbf13952f	-0.5764951
125	0xbc8b523a	-0.017006982
126	0xbea63736	-0.32463998
127	0xbe40a720	-0.18813753
128	0xbc3e9543	-0.011632266
129	0xbdc5b37c	-0.096533746
130	0xbe6cc196	-0.23120722
131	0x3dbf1e80	0.09331989
132	0x3d3be9cc	0.045877263
133	0xbdeeb190	-0.11654961
134	0xbeade1d0	-0.33961344
135	0xbdd332fc	-0.10312459
136	0xbd945c25	-0.07244138
137	0xbe289ae3	-0.16465335
138	0xbe44e9bf	-0.19229792
139	0xbe6ec8ce	-0.23318788
140	0xbe83a530	-0.25711966
141	0x3e72b191	0.23700549
142	0xbe726bde	-0.2367396
143	0xbe08a81b	-0.13345377
144	0xbebc2d7d	-0.36753455
145	0x3d01b305	0.031664867
146	0xbe20c5ba	-0.15700427
147	0xbe9fe7c7	-0.3123152
148	0xbe0c6aed	-0.13712664
149	0xbdee2819	-0.11628742
150	0xbe528976	-0.2056025
151	0xbbe1ab71	-0.0068868925
152	0xbe948dc2	-0.29014403
153	0x3e161932	0.14658049
154	0xbe0455c4	-0.12923342
155	0x3e0e1562	0.13875344
156	0xbe0d7525	-0.13814218
157	0xbe0e2434	-0.13880998
158	0xbebeaef4	-0.37242854
159	0xbe27b18c	-0.16376323
160	0xbebe01ff	-0.37110898
161	0xbc827c58	-0.015928432
162	0xbe198d1c	-0.14995235
163	0x3d97c100	0.07409859
164	0x3de50af5	0.111837305
165	0x3dbfe564	0.09369925
166	0x3e86bf20	0.26317692
167	0xbda5810d	-0.08081255
168	0x3d9f3c1b	0.07775136
169	0xbdbb95e4	-0.09159449
170	0xbe8fe3a0	-0.28103352
171	0xbed68a65	-0.41902462
172	0x3dce82d2	0.10083546
173	0x3dee4f58	0.11636227
174	0x3e348da6	0.1763216
175	0xbf1e700e	-0.6188973
176	0xbea3f17f	-0.32020184
177	0xbd93b39e	-0.07211994
178	0xbe4a8f34	-0.1978119
179	0xbc999c3b	-0.018751254
180	0xbd27ec4c	-0.040996835
181	0xbec03941	-0.3754368
182	0xbeed463f	-0.46342656
183	0x3dbd4d76	0.0924329
184	0xbec19a6d	-0.3781313
185	0xbe299fbb	-0.16564839
186	0xbd7e5337	-0.06209108
187	0x3d8cc53f	0.06873559
188	0xbe9ef1a5	-0.31043735
189	0xbdbbb0f8	-0.091646135
190	0xbcdd87fd	-0.027042383
191	0xbe1ba040	-0.1519785
192	0xbdce441a	-0.10071583
193	0xbd8ae72f	-0.06782376
194	0x3e5a62af	0.21326707
195	0xbe5bac9b	-0.21452563
196	0xbdc92804	-0.098220855
197	0xbe3bfb27	-0.18357526
198	0xbe82baa2	-0.25533015
199	0xbe913402	-0.2835999
200	0xbeaaaf66	-0.33336943
201	0x3cb5a296	0.022172254
202	0x3dfe24a2	0.12409331
203	0xbdb19c0f	-0.08672344
204	0xbeaae33d	-0.33376494
205	0x3ddb1d6f	0.106989734
206	0xbd376e29	-0.04478279
207	0xbe840922	-0.25788218
208	0x3d180537	0.03711435
209	0x3ce3d4ac	0.02781137
210	0xbeaf22f6	-0.3420636
211	0xbee90186	-0.45508975
212	0xbd7dbe06	-0.0619488
213	0xbd217910	-0.039422095
214	0x3e0791da	0.13239232
215	0x3ea338d8	0.31879306
216	0xbe2b3b3d	-0.16721816
217	0xbd03b87f	-0.03215837
218	0xbe00b07a	-0.1256732
219	0x3c161af9	0.009161704
220	0x3ed58eac	0.41710413
221	0xbec60d44	-0.38681996
222	0xbe14ee7c	-0.145441
223	0xbeb0e95b	-0.34553036
224	0xbdac949b	-0.08426782
225	0xbe73fee4	-0.23827702
226	0x3d1b8c6a	0.037975706
227	0x3ebec17c	0.37256992
228	0xbd70a731	-0.058753196
229	0xbd4ffee9	-0.05078021
230	0x3e34e2cf	0.17664646
231	0x3d36ef52	0.044661827
232	0xbdcd3420	-0.10019708
233	0x3e307db1	0.17235447
234	0xbe9e7801	-0.3095093
235	0x3d85b46d	0.06528554
236	0xbe070d40	-0.13188648
237	0xbddc5f68	-0.10760385
238	0xba1b110e	-0.0005915322
239	0xbdafac25	-0.08577756
240	0xbd1805a4	-0.037114754
241	0xbc9ce28b	-0.019150993
242	0xbe546c7e	-0.20744511
243	0x3d9f8c43	0.07790425
244	0xbd2b6440	-0.041843653
245	0xbd94f2a3	-0.07272842
246	0xbe4c7524	-0.1996656
247	0xbcfa00b4	-0.030517913
248	0x3cb2cbb5	0.02182565
249	0xbe28d93f	-0.16489123
250	0xbecab439	-0.39590624
251	0xbc9e28b1	-0.019306513
252	0xbe28a82d	-0.16470404
253	0x3e888690	0.26665163
254	0xbe5bd6fc	-0.21468729
255	0xbe014691	-0.12624575

hidden_layers.1.bias f4 [64]
0	0xbda919bd	-0.08256862
1	0xbdfa94d3	-0.12235417
2	0x3d27e9e4	0.04099454
3	0x3d650b9a	0.055919267
4	0x3d5c35e2	0.053762324
5	0xbe6df941	-0.23239614
6	0xbde06dd6	-0.109584495
7	0xbc5569b4	-0.01302569
8	0x3e3f334e	0.18671915
9	0x3df7b53a	0.12095113
10	0xbb952041	-0.004550964
11	0x3dfaa8f0	0.122392535
12	0x3d0fa373	0.035067987
13	0xbe2d49fc	-0.16922754
14	0xbe324488	-0.17408955
15	0xbd88b0ce	-0.06674348
16	0x3c24a56b	0.010049204
17	0xbdd7806c	-0.105225414
18	0xbbf25d68	-0.007396389
19	0x3e46a839	0.1940011
20	0x3d61dcd6	0.055142246
21	0x3dcb9522	0.09940554
22	0xbd08c646	-0.033392213
23	0xbe134721	-0.14382602
24	0xbd9d6d52	-0.07686867
25	0xbdff4dbc	-0.124659985
26	0x3cb3415a	0.021881748
27	0xbd871a9d	-0.06596873
28	0xbde9e655	-0.114208855
29	0x3bdfb421	0.006826893
30	0x3c5d4e0c	0.013507377
31	0xbe0961b3	-0.13416176
32	0xbdb01b4d	-0.08598957
33	0x3da04208	0.078250945
34	0xbd893c69	-0.067009754
35	0xbe11e5c1	-0.142478
36	0xbd79b83d	-0.06096672
37	0xbe145d94	-0.14488822
38	0xbdda7cd5	-0.10668341
39	0xbe196d63	-0.14983134
40	0xbe359aa9	-0.1773478
41	0x3e9e161b	0.3087624
42	0x3eb10e11	0.34581044
43	0xbe125015	-0.14288361
44	0x3d64ce3e	0.05586075
45	0xbcf1fb28	-0.029538706
46	0xbe1215fa	-0.14266196
47	0xbe4ea55c	-0.20180267
48	0x3ce2ab46	0.02766956
49	0xbe093a96	-0.13401255
50	0xbd8d7ecf	-0.069089524
51	0x3e5c9519	0.21541251
52	0xbe1418be	-0.14462563
53	0xbcda5e1b	-0.026656201
54	0x3c799aea	0.015234688
55	0xbe6b3dc7	-0.22972785
56	0xbe695345	-0.22785671
57	0xbd61a494	-0.055088595
58	0xbd81f9cb	-0.06346472
59	0xbdae7640	-0.08518648
60	0x3ca403ff	0.020021437
61	0x3d2630f8	0.040574044
62	0x3e830fab	0.2559789
63	0x3d739643	0.059469473

output.weight f4 [4, 64]
0	0xbdba4d54	-0.090967804
1	0x3ecc2d19	0.39878157
2	0x3e11f3c6	0.14253148
3	0xbd537919	-0.05162916
4	0x3ca2f944	0.01989425
5	0xbe0dcbce	-0.13847277
6	0x3dc1e2dd	0.09467099
7	0xbeec5c50	-0.4616418
8	0x3e0a933e	0.13532731
9	0x3da77030	0.08175695
10	0xbc4d63e2	-0.012536021
11	0x3dbb5946	0.09147887
12	0xbddbeb77	-0.10738271
13	0xbab29d73	-0.0013627246
14	0xbd0bad3c	-0.034100756
15	0xbdf7e0e0	-0.121034384
16	0xbd466fda	-0.048446514
17	0x3e5abfa2	0.21362165
18	0x3e166295	0.14686044
19	0x3e8cf73a	0.2753237
20	0xbea80110	-0.3281331
21	0x3dcd97a6	0.1003869
22	0x3e5ef6c9	0.21773829
23	0xbd9bf5d4	-0.07615247
24	0xbecf9834	-0.4054581
25	0xbd33fe49	-0.043943677
26	0xbe69cf41	-0.22832967
27	0xbe244d97	-0.16045223
28	0xb9ca7af6	-0.00038620055
29	0xbd7c35de	-0.06157481
30	0xbebcae8a	-0.36851913
31	0x3db59cfd	0.08867834
32	0xbd560c17	-0.052257624
33	0x3e87f804	0.26556408
34	0xbd942d09	-0.07235152
35	0xbebec711	-0.3726125
36	0xbea6ce54	-0.3257929
37	0xbea4ed17	-0.32212135
38	0xbd7a6263	-0.061128985
39	0xbbb30362	-0.0054630497
40	0x3d230370	0.0397982
41	0x3e4bbd91	0.19896533
42	0x3db07cea	0.086175755
43	0x3dc0889e	0.09401058
44	0x3d8b48c4	0.06800988
45	0x3d053b4e	0.03252726
46	0x3d956983	0.072955154
47	0x3d709dbc	0.058744177
48	0x3e991105	0.29895797
49	0x3e02d968	0.12778246
50	0xbd1f8f86	-0.038955234
51	0x3e980faa	0.2969945
52	0xbdb54e33	-0.08852806
53	0x3d0962e2	0.033541568
54	0x3e7c2905	0.24625023
55	0xbdcf165e	-0.10111688
56	0xbd34cbfd	-0.04413985
57	0x3d9fde25	0.078060426
58	0x3e419e53	0.18908052
59	0xbe38c05d	-0.18042131
60	0xbce011ce	-0.02735224
61	0x3c6fcfae	0.014636917
62	0x3dad9dc8	0.0847736
63	0x3e08ee7b	0.13372223
64	0x3df22c15	0.11824814
65	0xbe8757fb	-0.2643431
66	0x3eaa20c3	0.3322812
67	0xbd03c741	-0.032172445
68	0x3df1bcc6	0.11803584
69	0x3cf8635c	0.030320816
70	0x3c9c1658	0.019053623
71	0xbe1a1ee5	-0.15050848
72	0x3e390c11	0.18071009
73	0x3d3a8a4c	0.045542046
74	0x3d9d5af7	0.07683366
75	0x3e12d581	0.14339258
76	0xbe0c8d48	-0.1372577
77	0x3c1a64dc	0.009423461
78	0x3a6a5e70	0.0008940464
79	0xbd59a672	-0.05313725
80	0xbea125c4	-0.31474125
81	0x3e9b4b6c	0.3033098
82	0xbe82254a	-0.25419074
83	0x3e3a5c6b	0.18199317
84	0xbdc9aa1b	-0.09846898
85	0x3dc60ef3	0.0967082
86	0x3e11af75	0.14227088
87	0xbda320c3	-0.07965233
88	0x3d233724	0.039847508
89	0xbd490b66	-0.049083136
90	0x3e9f798e	0.31147426
91	0x3e712c27	0.23551999
92	0xbddba4e4	-0.1072481
93	0x3d53ecdb	0.051739555
94	0x3e38acf4	0.18034726
95	0x3ce66c3e	0.028127786
96	0x3dade54c	0.084910005
97	0x3e1ff785	0.15621765
98	0x3e548d60	0.20757055
99	0xbdaf0304	-0.08545497
100	0x3dce2661	0.10065914
101	0xbe800b4b	-0.25008616
102	0xbdce1a5e	-0.10063623
103	0x3dfc5811	0.12321485
104	0x3e218bdf	0.15776013
105	0x3e1ebfab	0.15502803
106	0x3e1df174	0.15424138
107	0xbcd62909	-0.026142614
108	0x3e317ce6	0.17332801
109	0x3d97580c	0.073898405
110	0x3d2d820d	0.042360354
111	0x3cb13194	0.021630086
112	0x3e9cd627	0.30632135
113	0x3e1d136c	0.1533944
114	0x3d6c180b	0.057640117
115	0x3e1d1fae	0.15344116
116	0x3e0610db	0.13092367
117	0xbbbef3f8	-0.005827423
118	0x3e0899f9	0.13339986
119	0x3e8b5667	0.27214357
120	0xbe64012a	-0.22266069
121	0x3d364e10	0.04450804
122	0xbd04d53f	-0.03242993
123	0xbea4a022	-0.32153422
124	0xbded29a8	-0.11580211
125	0xbe0ed00c	-0.13946551
126	0x3dffd6be	0.12492131
127	0x3e381606	0.17977151
128	0xbe41ead2	-0.18937233
129	0xbcc39af5	-0.0238776
130	0x3cb2c390	0.021821767
131	0xbe94c3f1	-0.2905574
132	0x3e28331d	0.16425748
133	0x3d6e2b5d	0.058146823
134	0x3e1c6c83	0.15275769
135	0x3e3301f6	0.17481217
136	0x3e271ef4	0.16320401
137	0x3e5d04e6	0.215839
138	0xbe3b091c	-0.18265194
139	0x3d950b87	0.07277589
140	0x3e0ce77e	0.13760182
141	0xbda8da61	-0.082447775
142	0xbdecd6a6	-0.115643784
143	0xbd566aa9	-0.052347813
144	0xbe416ce2	-0.18889192
145	0xbd840344	-0.06445935
146	0xbd032c8d	-0.03202491
147	0x3c36a8c5	0.011148636
148	0xbd84d10c	-0.06485185
149	0x3d6a6314	0.057223395
150	0x3e2aa0e7	0.16662942
151	0x3e33b4fd	0.1754951
152	0xbd78f670	-0.060781896
153	0xbc4c8690	-0.012483254
154	0xbdf3b156	-0.118990585
155	0xbe8af79a	-0.2714203
156	0x3ce18d5d	0.027533228
157	0x3d9cee27	0.076626115
158	0xbeed43ac	-0.46340692
159	0xbe9faee8	-0.3118813
160	0x3dd72776	0.105055735
161	0x3df87cc4	0.12133172
162	0xbb1e03f4	-0.0024111243
163	0x3e1bebc5	0.15226658
164	0x3d8ec1aa	0.06970532
165	0xbe3ef686	-0.18648729
166	0xbd445ee7	-0.04794207
167	0x3e5351c7	0.20636664
168	0x3d4a732a	0.049426235
169	0x3e2cf553	0.16890459
170	0x3e24134f	0.1602299
171	0xbdce641e	-0.100776896
172	0x3b75b86c	0.0037493957
173	0x3e82f379	0.2557638
174	0x3d8ca06e	0.06866537
175	0x3d47aa4c	0.048746392
176	0x3e513a4b	0.20432393
177	0xbe82135b	-0.25405392
178	0x3c919663	0.017771905
179	0x3e5d337c	0.21601671
180	0xbe1b8f0b	-0.15191285
181	0x3e836f09	0.2567065
182	0xbdf6c76f	-0.12049758
183	0x3da52c67	0.0806511
184	0xbec69dfc	-0.38792408
185	0xbe0ee35b	-0.13953917
186	0xba7faf00	-0.0009753555
187	0x3e4a3487	0.197466
188	0xbed43590	-0.41447115
189	0x3d50449a	0.050846674
190	0xbd801f99	-0.06256027
191	0x3e260bf8	0.16215503
192	0xbde164a0	-0.11005521
193	0xb9b3cea2	-0.00034295494
194	0x3d637432	0.055530734
195	0xbe8b7b2b	-0.27242407
196	0xbeac2b74	-0.33626902
197	0xbe940fd2	-0.2891832
198	0xbd601976	-0.05471178
199	0x3d4c7587	0.04991677
200	0x3d8d1071	0.068879016
201	0x3de90bae	0.11379181
202	0x3e450dec	0.19243592
203	0xbcb84b2e	-0.022496786
204	0x3dd7e8eb	0.105424725
205	0x3cc2e3cb	0.02379026
206	0x3d8945c9	0.067027636
207	0xbd9d6a68	-0.07686311
208	0x3db3b765	0.08775214
209	0x3d582578	0.052770108
210	0x3e11dc69	0.14244236
211	0x3d86ff78	0.065916955
212	0xbdfeb71b	-0.12437268
213	0x3e72d1ba	0.23712817
214	0xbce5369e	-0.027980145
215	0x3c1468b1	0.0090581635
216	0xbde098f9	-0.10966677
217	0xbd41cba1	-0.047313336
218	0xbeb46359	-0.35232046
219	0x3d9b46ea	0.07581885
220	0x3db8d0d3	0.09024205
221	0xbe9313af	-0.28725955
222	0xbdd1b477	-0.10239499
223	0x3e1b802c	0.15185612
224	0xbde84230	-0.11340749
225	0x3e658424	0.22413689
226	0xbd8b4223	-0.06799724
227	0x3d2333ce	0.039844327
228	0xbbd43d7f	-0.0064770575
229	0xbdcf551c	-0.10123655
230	0x3e2ea192	0.17053822
231	0xbd65e437	-0.056125846
232	0xbd0bca60	-0.034128547
233	0x3e8b64c8	0.27225327
234	0x3e66a8cd	0.2252533
235	0xbe486ee3	-0.1957355
236	0x3e542596	0.20717463
237	0x3c2f8100	0.010711908
238	0x3d4f7dec	0.050657198
239	0x3c84bffc	0.016204827
240	0xbdd007a8	-0.1015771
241	0x3d42df04	0.047575966
242	0x3e17df91	0.14831378
243	0x3e4b6bbd	0.19865318
244	0x3dfd5dfe	0.12371443
245	0xbd607859	-0.054802272
246	0x3e1af742	0.15133384
247	0x3d8f929f	0.07010388
248	0xbdf3f5df	-0.119121306
249	0xbd89dda0	-0.06731725
250	0xbe28a21c	-0.1646809
251	0xbea31336	-0.31850594
252	0xbe036519	-0.12831534
253	0x3e94a1ad	0.290296
254	0xba52b849	-0.0008038325
255	0x3e1802bc	0.14844793

output.bias f4 [4]
0	0x3ec77969	0.38959816
1	0x3e9ba273	0.30397376
2	0x3ea2abe7	0.31771776
3	0x3e82e343	0.25564012
