data/per-ddqn/checkpoint-Train.pth (torch_old, 31543 bytes, 6 tensors)

hidden_layers.0.weight f4 [64, 37]
000000 2f 32 f7 3d fe 96 0d be 15 5c 0e bc 7c 2b 17 bc
       0.12070119 -0.1382713 -0.008688946 -0.009226676
000010 7c e5 a3 3d 29 8a a1 3e 83 0d 93 bf 1e 77 d5 3d
       0.08002755 0.3155072 -1.1488498 0.104231104
000020 e2 15 65 be d7 da ce bf c3 19 35 bb 24 63 9b bc
       -0.22371629 -1.6160535 -0.0027633763 -0.018968172
000030 f5 19 ed bd 27 dc e9 bd 4d 35 d3 3c e3 3c f1 bc
       -0.115772165 -0.11418944 0.025782252 -0.029447978
000040 0c ec 80 3b 0f 43 52 3d 05 e7 01 3e ca bc 1e 3e
       0.003934389 0.051333483 0.12685783 0.15501705
000050 70 c4 46 3e 00 cb 6d 3d d0 a3 7d 3d 40 91 04 be
       0.19410872 0.058054924 0.061923802 -0.12946033
000060 3e c9 2d be ba ca 86 3d 17 4c cb bc 93 7c 7b be
       -0.16971299 0.06581636 -0.024816556 -0.2455924
000070 84 00 72 bd 9d 9b 00 bf 99 b2 65 3e c4 33 8e bc
       -0.059082523 -0.5023745 0.22431411 -0.017358668
000080 e5 60 25 bf 75 c6 12 be 96 b5 87 bf 0d a0 ac bd
       -0.64600974 -0.14333518 -1.0602291 -0.08428965
000090 1e 8f 19 3c 29 2b e6 bd b1 18 04 3e 24 15 0c 3e
       0.009372501 -0.11238701 0.12900044 0.1367994
0000a0 98 66 90 3e 4e 92 40 3e ae dc c3 be 16 73 60 be
       0.28203273 0.18805811 -0.38254303 -0.21918902
0000b0 dc a6 f7 3c 51 c9 ac bd 5c 3a 29 3f 16 a0 65 bd
       0.030230932 -0.084368356 0.66104674 -0.056060873
0000c0 26 19 fa bd aa 7c 35 be 4f 48 bf 3d 90 2d 92 3e
       -0.12211828 -0.17723337 0.09339964 0.28550386
0000d0 e5 d6 a1 bd 7e 39 8f bd c2 65 4a be d8 ce fc 3e
       -0.07902316 -0.06993388 -0.1976538 0.4937656
0000e0 0e cf 31 3f 6d 00 eb bd 78 9b 7a be 2a b0 7f bd
       0.69456565 -0.114746906 -0.24473369 -0.062423863
0000f0 23 24 af bd 92 39 77 3e 84 3c c4 be a0 74 27 bb
       -0.085518144 0.24143055 -0.3832742 -0.0025551692
000100 ba 2f f1 3d b4 7c 23 3e cc 8c 05 3f ca b4 e1 be
       0.11776681 0.15965539 0.52167964 -0.44083244
000110 18 86 1d 3e ee e3 78 3e 85 79 c0 be 1a ab a5 3d
       0.15383184 0.24305698 -0.37592712 0.08089276
000120 e9 e9 83 3b b7 2c 03 bd 94 a2 dc 3e b1 77 64 be
       0.004025687 -0.032025065 0.43092787 -0.22311284
000130 c0 6c 43 bf f8 55 7c be 3c 80 6c bf 69 9d 3d bd
       -0.76337814 -0.2464217 -0.9238317 -0.046292696
000140 ca 3e 60 be 94 b2 15 bf ad fb 23 3e 01 30 60 be
       -0.21898952 -0.58475614 0.16013975 -0.21893312
000150 a6 dd 7e be cf 25 22 3d 52 d3 28 3e 20 a1 74 bf
       -0.2488924 0.03958684 0.16486862 -0.9555836
000160 ca 78 ba 3e 99 28 27 3e 9e 0e 2f bf c2 0e b9 be
       0.3642028 0.1632408 -0.6838168 -0.36144072
000170 d7 32 05 3e 86 a1 80 bf cb bb 13 bf fa 6f 32 be
       0.13007675 -1.0049293 -0.57708424 -0.17425528
000180 5c 45 c6 be e7 ab 2c bd f2 bf ce bd 1b 6b ba bf
       -0.38724792 -0.042156126 -0.100952044 -1.4563936
000190 72 cc f3 3e 71 f4 31 bf 73 e7 74 bd 23 74 69 bd
       0.47616917 -0.69513613 -0.05979104 -0.056995522
0001a0 86 1d 3f bf b1 4c e5 bd 34 59 eb bd 3e 56 9e be
       -0.74654424 -0.11196268 -0.114916235 -0.30925173
0001b0 42 9f a6 3e be 81 43 3e 3a 41 8c bd 64 b7 92 bf
       0.3254338 0.19092461 -0.068483785 -1.1462216
0001c0 d9 59 d7 3e 52 d9 45 3e 9f b7 4b be 22 c1 88 bf
       0.42060736 0.19321182 -0.19894265 -1.068394
0001d0 44 b7 97 bf 4d 4b b5 3e aa a4 95 3e 44 c8 38 3e
       -1.1852803 0.35409012 0.2922719 0.18045145
0001e0 92 02 c6 be d8 b4 81 be 88 36 a0 bd 54 f0 d1 3d
       -0.38673836 -0.25333285 -0.07822901 0.10250917
0001f0 23 29 b8 bd ef 7c be bd 4e 79 cb be 45 3b 75 3e
       -0.08992221 -0.09301173 -0.39740986 0.23948391
000200 69 79 a3 3e 6c fd 34 3e 0b 16 d5 be 3d e9 84 bd
       0.31928566 0.17674798 -0.4161838 -0.06489799
000210 6c 4b 81 bc 84 b5 c9 3c b4 51 8a 3c c3 52 90 3d
       -0.015783034 0.024622686 0.016884662 0.070470355
000220 57 8d 11 bf 91 8a a1 3d 95 fe 99 3e b2 74 a1 3e
       -0.5685629 0.078877576 0.30077043 0.31534344
000230 40 7b 12 3f ab 31 f9 bd a8 10 d3 3d 8e 32 26 3e
       0.57219315 -0.121676765 0.10305911 0.16230223
000240 a1 aa 34 3e 35 57 78 3e eb 1a 21 3d 49 97 9e bc
       0.17643215 0.24252017 0.03933231 -0.019359248
000250 19 5f 51 bd 48 f1 17 bd ca be 17 bd 06 2e 88 bd
       -0.051116083 -0.037095338 -0.037047185 -0.06649403
000260 cc f4 01 bd 7c 2e 04 3f 1a 22 65 bf d7 5a 55 bf
       -0.031727597 0.5163343 -0.8950516 -0.83341736
000270 cb 68 6c bf ef f1 94 c0 1e 62 37 3d 75 99 52 3c
       -0.923474 -4.654533 0.044771306 0.01285397
000280 70 8d ee 3c cc 25 cf 3c e4 d0 1c 3a dd 0e 12 3d
       0.029120177 0.025286578 0.0005982055 0.035658706
000290 3c 3a 9b 3c db 3e 5f 3d 8c 06 de 3d fa 5b d6 3d
       0.018948667 0.054503303 0.108410925 0.10466762
0002a0 8e 58 ab 3d 50 f7 2c 3d d2 7b a5 3d 75 2a af 3c
       0.083665 0.042228043 0.080802575 0.02138255
0002b0 f0 2f b4 bb 13 17 ac 3d e8 98 90 3d 8a 7f b7 3d
       -0.0054988787 0.084028386 0.070604146 0.08959873
0002c0 42 3d 2a 3e 9c c1 88 3d eb f7 a5 3d 35 68 63 3d
       0.1662493 0.06677553 0.08103927 0.0555193
0002d0 86 c0 cd 3d 10 d6 02 3e 46 f0 b5 3d 93 f8 76 3a
       0.100464866 0.12776971 0.08883719 0.0009421196
0002e0 cb e7 96 3b 4c 0a 3a bd f1 90 d8 3c 97 5d fd 3d
       0.0046052686 -0.045419976 0.026436301 0.123713665
0002f0 c5 57 4b 3e f5 9b 04 3e 1a de ba bd 8a 7b 67 3e
       0.198577 0.12950118 -0.09124394 0.2260572
000300 76 f8 bc 3e dc 73 09 3e a2 7e 1d 3f 52 6d 29 bc
       0.3690831 0.13423103 0.6152135 -0.010341005
000310 5e 09 4e bd 78 f8 e4 bd eb 33 22 3e 7c bd c2 3d
       -0.050301902 -0.11180204 0.15840118 0.095087975
000320 a4 84 63 be 61 c9 0f 3e 84 ef 5d 3e 6a ae c8 bd
       -0.22218567 0.14041664 0.21673399 -0.09798892
000330 c2 f5 a6 3e 4c a0 9d 3e a6 5a 12 be 18 c7 0f bf
       0.32609373 0.3078636 -0.14292392 -0.5616317
000340 d8 e3 ba be f6 57 27 c0 48 7b 1d be 39 93 ed 3c
       -0.36501956 -2.6147437 -0.1537906 0.029000865
000350 19 12 85 bd 0d b0 a6 3e a9 88 84 3e be 9d 57 3e
       -0.064975925 0.3255619 0.25885513 0.21056268
000360 6b 29 a9 bf 45 62 00 bf 44 61 c2 be 36 db 2b c0
       -1.3215765 -0.5014995 -0.37964833 -2.6852546
000370 d5 ea 04 be b0 75 c1 3b 3d 94 96 bd 0e 4e e4 bd
       -0.12980206 0.005903922 -0.07352493 -0.111477
000380 7c 22 59 3d 50 24 6a bd 25 81 37 3e 75 12 b4 bf
       0.053011402 -0.057163537 0.17920358 -1.4068133
000390 92 8a d3 3e 13 20 15 3f 00 34 ed 3e be dd 91 be
       0.41316658 0.58252066 0.46328735 -0.28489488
0003a0 fd 9b 2c 3d cb a2 a0 bd aa a6 07 3d 50 f7 cd 3d
       0.04214095 -0.0784355 0.033117928 0.10056937
0003b0 62 c1 d7 3d f4 07 58 be e8 e7 32 be 6a 67 aa 3d
       0.10534932 -0.21096784 -0.17471278 0.08320506
0003c0 38 7e 08 3e 20 e7 3d 3f 42 27 68 bd 49 ad f4 bd
       0.13329399 0.74180794 -0.056678064 -0.11947114
0003d0 19 43 7d bc 0b 1f bb 3c ce da a0 3e 7a d8 98 be
       -0.015457892 0.02284195 0.31416935 -0.2985266
0003e0 8d 96 1f be 86 72 ca bd eb 02 c0 3e 5e be 53 3f
       -0.15584774 -0.09885125 0.37502226 0.8271235
0003f0 40 ee 80 3c e7 d2 a3 3c 96 66 17 be b9 7b a1 3d
       0.015738606 0.019998027 -0.14785227 0.07884926

hidden_layers.0.bias f4 [64]
000000 d4 16 43 3d 8b 53 ef bd bc 87 88 be c6 07 83 be
       0.047629192 -0.116858564 -0.26666057 -0.25591868
000010 5b 42 58 3e e9 62 a6 bd b6 97 8f be 8d 96 e5 bc
       0.21119063 -0.08124334 -0.28045434 -0.02802589
000020 ca 12 5f be c9 93 23 be 3c bf 18 bc 1a 16 00 3e
       -0.21784511 -0.15974344 -0.009322938 0.12508431
000030 fc a1 d7 bd 17 91 4e be f6 4e 9d be b6 7d 26 bd
       -0.10528943 -0.20172535 -0.30724305 -0.04064723
000040 4e e0 0c be 74 fe 46 bd 6e 0c 70 be 97 29 c8 be
       -0.1375744 -0.04858251 -0.23442242 -0.3909423
000050 3f 9a 1c bd bc 17 5b be 33 77 50 be cf b4 a1 be
       -0.038233038 -0.21395773 -0.20357971 -0.31583259
000060 4c 82 35 be ec ff 08 be c8 be bd be ea 7c 6e be
       -0.17725486 -0.13378876 -0.37059617 -0.23289838
000070 20 36 3d 3d 66 3e 33 be e3 8f 0e be a6 5f e7 be
       0.046194196 -0.17504272 -0.13922076 -0.4519016
000080 9c 1b d7 bd c8 71 e6 be 2f 43 de be f2 9f 3a be
       -0.10503313 -0.45008683 -0.43410632 -0.18225077
000090 fe 13 0b be 1f aa 93 bd aa 3e c6 bd 7c b6 f5 be
       -0.13581845 -0.072101824 -0.09679921 -0.47990787
0000a0 91 d2 84 be 1c f5 79 be 46 fd 33 bd 0e 32 89 bd
       -0.259419 -0.24409908 -0.043942712 -0.06699
0000b0 c0 46 5b be 08 4a c1 be ee 23 99 be f8 df 80 be
       -0.21413708 -0.37751794 -0.29910225 -0.25170875
0000c0 76 d7 6b be 79 c4 0d be a7 36 ce be 22 b0 c4 bc
       -0.2303141 -0.1384448 -0.4027607 -0.024009768
0000d0 a2 6f 4f be 9a 8a d2 be 0b ef 9e be 52 de 31 be
       -0.20257428 -0.4112137 -0.3104175 -0.17369965
0000e0 3e 08 05 be fd 74 88 be 76 85 49 be 3f d9 ad be
       -0.12991425 -0.26651755 -0.19679818 -0.33954808
0000f0 4a e8 59 be b9 4e 1d 3d 7b c7 60 be 54 1d 95 3d
       -0.21280017 0.038405154 -0.21951096 0.072809845

hidden_layers.1.weight f4 [64, 64]
000000 88 46 7c bf a4 fe 0f be ec 46 54 3e a8 5e 08 bf
       -0.9854512 -0.14061981 0.2073018 -0.53269434
000010 42 e5 9b bf 2a 57 8a be eb 66 9e be a3 15 4d bd
       -1.2179339 -0.27019626 -0.30937895 -0.050069463
000020 5f d0 86 ba 42 37 83 be f4 d6 88 be a1 dd 1e bf
       -0.0010285488 -0.25628096 -0.26726496 -0.6205693
000030 a4 d7 c2 3a 9b 51 8d 3c 8e 6d 9f bd e7 5a 50 be
       0.0014865291 0.017250827 -0.07784568 -0.20347176
000040 ec 96 14 bd e1 50 71 bf 79 fd a2 bd fb 31 3f 3d
       -0.036276743 -0.94264036 -0.07958502 0.046678524
000050 c9 17 aa bf e4 75 56 3e 58 76 79 3e 58 fe 98 be
       -1.3288509 0.20943409 0.24361551 -0.2988155
000060 70 7e 8c bf 68 26 c1 3c 8b 22 c5 be a2 7d b7 bd
       -1.0976086 0.023577884 -0.38502917 -0.089595094
000070 f5 c0 57 bf cd 87 b4 be 9c 52 fd 3c ec 61 90 be
       -0.84278804 -0.35259858 0.03092318 -0.28199708
000080 9b 94 32 be 65 8e bd be 1b b5 bc bc 9c 41 d3 be
       -0.17439501 -0.370227 -0.023035577 -0.41260993
000090 e3 22 2d be 9f 3f 0f bf d2 4e 95 be e4 95 83 bd
       -0.1690784 -0.55956453 -0.29161698 -0.06425074
0000a0 5b 6b d0 bd 0e 58 6a 3d 69 ec a0 be bb 76 f7 bd
       -0.101767264 0.05721288 -0.31430367 -0.12083193
0000b0 c0 bd a0 3e 6b cb 77 bd 2b 1c 82 bd be 42 c7 be
       0.31394768 -0.06049673 -0.06353029 -0.38918108
0000c0 f4 bb 9a bd 64 c4 70 be 74 40 02 be e4 ca c4 3d
       -0.075553805 -0.23512417 -0.127199 0.09609011
0000d0 ea b2 99 be 56 7f e1 be 8f bb 9b bd b4 f2 74 bd
       -0.30019313 -0.44042462 -0.07604133 -0.059801772
0000e0 df f2 93 be f1 ea 52 be 8b b0 c4 be 4a 07 2f 3d
       -0.28896233 -0.20597436 -0.38415942 0.04273156
0000f0 b4 3f e6 be e0 46 4e bf e3 88 8d be 05 00 8d be
       -0.44970477 -0.80576897 -0.276435 -0.27539077
000100 34 6a 03 3e f7 76 2e be 6d 7e 4d be 38 4f a0 3d
       0.12833482 -0.17037569 -0.20067759 0.0782761
000110 3b ab 15 bf fc 9e 82 3e 0f 99 18 bf ac 29 1e 3e
       -0.584644 0.2551192 -0.5960855 0.15445584
000120 8a 6d 9b be ba 01 60 be c6 07 15 3e 3f 03 cb be
       -0.3035701 -0.21875659 0.14553747 -0.39650914
000130 f7 bf 8f be e9 06 8a bc 98 00 1f bf 17 88 0c bd
       -0.28076145 -0.016848998 -0.6211028 -0.034309473
000140 2b 93 65 bd e2 87 ac be 75 04 41 bf a9 ed ac bd
       -0.056048553 -0.3369742 -0.75397426 -0.084437676
000150 5f d7 e8 bd b3 5d d7 bd 63 88 ac bd 41 0a b3 bd
       -0.11369204 -0.105159186 -0.08424451 -0.0874219
000160 4a 00 cc be fa b7 e5 bc ec c7 34 be ac fc a1 be
       -0.3984397 -0.028041828 -0.17654389 -0.31638086
000170 79 c7 1a bf 92 2a 25 bf a9 b4 d4 bd 01 90 99 bd
       -0.6046062 -0.6451808 -0.10386021 -0.0749817
000180 66 0f 13 bf 62 4e 0d be 71 e1 a9 be 18 42 54 be
       -0.5744537 -0.13799432 -0.3317981 -0.20728338
000190 56 00 f5 3d 05 8c e0 bd 50 2e 9c 3e 96 77 15 be
       0.11962955 -0.109642066 0.30504084 -0.145964
0001a0 bf fd 42 be ca ab ca bd cc 6f 87 3d 86 48 de be
       -0.19042109 -0.098960474 0.066131204 -0.43414706
0001b0 1e 5e c8 be 0c 25 22 bf 51 78 19 bf 6c c7 c6 3e
       -0.39134306 -0.6333778 -0.59949213 0.38824022
0001c0 55 99 44 bf 71 f8 0a bf 20 7e 50 bb 6d c7 ae be
       -0.76796466 -0.5428534 -0.0031813458 -0.34136525
0001d0 b8 eb 86 bb 0b 86 83 be 3f 7b 40 bf b1 35 02 be
       -0.0041174553 -0.25688204 -0.7518806 -0.12715794
0001e0 5a a7 8b bd 45 73 c2 be 81 41 8a be 8e 35 c8 be
       -0.06819029 -0.3797857 -0.270031 -0.3910336
0001f0 8f 77 1e bf b9 24 2e 3b 66 57 11 bf 9f 77 60 be
       -0.6190118 0.0026572181 -0.56773984 -0.21920632
000200 2b 27 fa 3c d5 e1 cd 3c c4 51 c5 3d 00 62 65 bd
       0.030536255 0.0251321 0.09634736 -0.056001663
000210 8c 2d 86 3d 82 f9 9a 3e 0f 21 1e be 17 c0 b7 3d
       0.06551656 0.30268484 -0.15442298 0.08972185
000220 93 94 57 3d e3 44 f1 3b 60 cc 2a 3e 96 5f 92 3c
       0.052631926 0.0073629483 0.16679525 0.017867845
000230 36 03 73 be 41 ed e5 bd be af 4b be 58 9a 26 3e
       -0.23731694 -0.11226893 -0.19891259 0.16269815
000240 e4 72 6b bd 37 ee e4 3d b3 94 78 3d 1a a0 30 be
       -0.057482615 0.111782484 0.060688686 -0.17248574
000250 23 51 ba 3d e6 90 cc be aa 23 38 be 1c 33 4c 3e
       0.09097507 -0.399543 -0.17982355 0.19941372
000260 86 02 eb 3d 7b ec 01 bc 6d 49 1a bc 2e 61 80 3e
       0.11475091 -0.0079299165 -0.00941692 0.25074142
000270 0f 38 bc bd b6 67 5e bf 94 68 b7 be 3b 5d 84 be
       -0.0919038 -0.86877 -0.35821974 -0.2585238
000280 97 29 40 bf b5 04 d8 be 72 82 74 bd e5 a9 d0 3d
       -0.7506346 -0.4219109 -0.059694715 0.10188655
000290 e2 2a a6 3e b4 5e 29 bd c6 c4 fd 3b 82 18 6a be
       0.32454592 -0.04135008 0.0077444045 -0.22860911
0002a0 a2 e4 66 3e 07 82 52 bf b0 4c 5f 3d f8 de c3 bd
       0.22548154 -0.82229656 0.054516494 -0.09564012
0002b0 bb 50 c6 3e cd d3 b9 be 2a 1e 03 bf 60 11 c3 be
       0.38733467 -0.36294404 -0.512179 -0.38099194
0002c0 72 d7 25 be 13 19 25 bf 63 ff 04 3c 74 32 dc bc
       -0.16195467 -0.64491385 0.00811753 -0.026879527
0002d0 95 90 48 be b5 f8 d9 bd 19 45 81 bc 99 80 66 bf
       -0.19586404 -0.1064314 -0.015780019 -0.90039974
0002e0 55 91 20 bf c0 93 05 be 21 af a8 3c 26 75 27 be
       -0.6272176 -0.13044643 0.02059132 -0.16353282
0002f0 6d c2 93 3d 21 12 96 3d 29 ae 05 be 00 1b d9 3d
       0.07214818 0.073276766 -0.13054718 0.10600853
000300 1b e6 ff bc 88 48 9f be 21 40 6e 3e eb 4d e8 be
       -0.031237653 -0.31110024 0.2326665 -0.45371947
000310 89 95 f0 be 81 52 e6 bd 52 38 00 3e 48 10 52 3e
       -0.46989086 -0.11246205 0.12521484 0.20514023
000320 76 33 72 be 55 71 be 3e 5e d4 f2 bc bb 7d 98 be
       -0.23652443 0.3719584 -0.02964228 -0.29783425
000330 53 2d 48 3e 31 35 68 bd c8 b2 04 bf 01 94 f4 bd
       0.1954854 -0.056691352 -0.518353 -0.11942292
000340 87 75 d0 be f2 b2 28 be 46 4f ab be b7 36 d0 3e
       -0.40714666 -0.16474512 -0.33458918 0.40666744
000350 86 52 8d be 00 42 f3 be d3 89 71 bd 75 93 e6 bc
       -0.27602023 -0.47511292 -0.05896933 -0.028146485
000360 04 d8 2c 3e fd 9f b1 be 11 f4 a6 3e 7e fb af be
       0.16879278 -0.34692374 0.32608083 -0.3437156
000370 49 fb be 3d ee 1c 02 bf aa b7 f1 be f4 e8 11 3f
       0.093252726 -0.50825393 -0.47210437 0.56996083
000380 72 60 33 be ef 12 1b be d3 61 77 3e b5 ce 09 3f
       -0.1751726 -0.15143941 0.2415841 0.53831035
000390 79 6c ab 3d 94 4d d3 be a5 e0 1d be 0c 99 83 3e
       0.08370299 -0.41270125 -0.15417726 0.25702703
0003a0 cf 59 34 be d8 08 23 bd 22 49 81 be 16 a6 83 bd
       -0.17612384 -0.039803356 -0.25251108 -0.06428163
0003b0 ec ba 2f be 03 eb 8a 3e 16 20 06 bf 02 83 1c be
       -0.17161149 0.27132425 -0.5239271 -0.1528435
0003c0 81 ed 41 3e d5 e4 60 3e dc bc 2d bf e7 2f cf bd
       0.18938257 0.21962292 -0.678663 -0.101165585
0003d0 fb 3c 59 3d 30 3a 2c 3e 75 d0 15 bf 1d 96 19 bf
       0.05303667 0.16819072 -0.58521205 -0.5999468
0003e0 51 48 45 be 00 ea 6f bd 10 46 2a bf 71 f8 46 be
       -0.19265868 -0.05857277 -0.66513157 -0.1943071
0003f0 2c 31 0b bf bd 8c 82 bc 70 4a ed be e6 51 7f be
       -0.54371905 -0.01593625 -0.46345854 -0.24933586

hidden_layers.1.bias f4 [64]
000000 cf 10 51 3e 24 62 1c bd 8c 30 a1 3e 99 43 fd be
       0.20416568 -0.03817953 0.3148235 -0.49465635
000010 86 d2 b8 3e 69 cc f0 be 24 3e 60 3e aa e6 64 3e
       0.36098117 -0.47030953 0.21898705 0.22353616
000020 51 7b 2a 3e 31 00 a2 3e 02 94 b7 3e fa d2 9d 3e
       0.16648604 0.3164077 0.35855108 0.30825025
000030 d2 f9 5e 3e da 7d 85 3c 30 ea 58 be 01 c3 af 3e
       0.21774986 0.016295362 -0.21183085 0.34328464
000040 2d 31 0b 3e 26 e0 2d 3e 2c 91 3c bf e9 e3 96 3e
       0.13592978 0.16980037 -0.73659015 0.29470757
000050 4f ef 02 be 3c 14 b5 be 64 8e 44 3e 0b 31 ae be
       -0.12786601 -0.35367 0.19194943 -0.34021792
000060 ea 75 ef 3d 23 34 19 bf 08 c0 ce be e1 a5 a5 be
       0.11692412 -0.5984518 -0.40380883 -0.32353118
000070 4e ba 80 be 8d 60 72 be 34 fc 65 bd 91 aa 16 3e
       -0.2514214 -0.23669644 -0.056148723 0.14713503
000080 7b d2 4c 3e 39 66 bb 3e 31 3b 89 3e 76 05 11 be
       0.20002167 0.36601427 0.26802972 -0.1416224
000090 19 4b 6a be 24 82 34 3e f3 9e eb 3d b3 b7 7e be
       -0.2288021 0.1762777 0.115049265 -0.24874763
0000a0 4c f8 99 3d 8a 53 11 3e 80 1d b3 3e 14 71 6a 3d
       0.07518062 0.14192024 0.34983444 0.057236746
0000b0 19 a8 fd bd 38 8d 42 be d1 c8 b4 be de 45 1e be
       -0.12385578 -0.18999183 -0.3530946 -0.1545634
0000c0 37 de 17 3e d7 26 fb 3d 37 0e ad be c9 eb b7 3e
       0.14830862 0.122632675 -0.33799908 0.35922077
0000d0 9c 0a b3 be 31 20 c9 be 8c bf cc 3d bd 72 8f be
       -0.34969032 -0.39282373 0.09997472 -0.28017226
0000e0 d2 73 20 bf 8a 61 f8 3d f6 05 65 be 92 e0 b5 3e
       -0.6267673 0.12127979 -0.22365555 0.35522896
0000f0 cd ea 13 bd 16 4d ce 3d 73 68 6f be 9a f0 8f 3e
       -0.036112595 0.10073297 -0.23379688 0.28113252

output.weight f4 [4, 64]
000000 54 c3 95 bd 50 4a 87 3d 7e 12 81 3d c7 ae d3 bd
       -0.073126465 0.06605971 0.06302355 -0.103360705
000010 6c a6 85 3d 2f 3d b3 be 79 48 a0 3d 6f 5d a6 bd
       0.06525883 -0.35007617 0.07826323 -0.0812329
000020 97 c6 a4 3d e7 3c 9f 3d 1c 9e be 3d c5 41 9d 3d
       0.080456905 0.07775288 0.09307501 0.0767856
000030 27 68 66 3d 1b 33 d2 3d da 29 e9 bc 7e e7 89 3d
       0.05625167 0.10263654 -0.02846234 0.06733607
000040 2f 44 11 3e 3d 8d 78 3b 2f 81 cc be 95 dc 8d 3d
       0.14186166 0.0037925981 -0.3994231 0.06926838
000050 54 35 16 3e 3f c1 2d bf d6 f4 79 3d 3e 8f 1f 3a
       0.1466878 -0.67872995 0.06102451 0.00060867134
000060 02 6b cb bd 03 b2 4b 3d b1 15 07 bf 6b 5c e1 be
       -0.099325195 0.049730312 -0.52767473 -0.44015822
000070 c1 b2 f8 bd 00 84 a5 3d 10 64 21 be 9e 9d cf 3d
       -0.121434696 0.080818176 -0.15760827 0.10137485
000080 03 a9 78 3d 5e 10 83 3d 3f 55 db 3d f2 37 13 3e
       0.060708057 0.06399606 0.10709619 0.1437681
000090 1b d4 9f bd 9a 47 29 be c7 c4 48 bd 6d 51 0a 3e
       -0.07804128 -0.1653122 -0.049015786 0.13507624
0000a0 2f f1 b8 3d 4e 22 7d 3d 1f e7 7d 3d d8 ea eb 3d
       0.09030377 0.061800294 0.061987992 0.11519402
0000b0 b8 09 65 3d 69 9f 83 be b4 89 bf bd 36 8b a9 3d
       0.05591747 -0.25707558 -0.09352437 0.082785055
0000c0 0a e2 ab 3d 88 82 6d 3d f9 08 9b 3d 82 cc 52 3d
       0.08392723 0.057985812 0.07570071 0.051464565
0000d0 d0 c7 dd be da e5 5d be fd 13 55 3d ab d4 88 bc
       -0.43316507 -0.21669713 0.052021015 -0.01670297
0000e0 40 12 dc bd 12 0a 9b 3d 4b fc 37 3e 3e 2e 82 3d
       -0.107456684 0.0757028 0.17967336 0.06356476
0000f0 35 b0 5f 3e 0f 89 ea bd b3 30 3f 3e 92 d0 61 3d
       0.21844561 -0.11451923 0.18670921 0.05513055
000100 fe 3b 34 bd b2 0b c1 be 77 90 55 3d 03 99 e4 be
       -0.044002526 -0.37704235 0.052139726 -0.4464799
000110 01 36 71 3d e6 04 6a bc d9 58 5f 3c 2e 4b 6d bd
       0.058889393 -0.014283394 0.013632023 -0.057933025
000120 70 66 ee 3c 18 98 83 3d 92 b9 3a 3d c4 ac 81 3d
       0.02910158 0.06425494 0.04558713 0.063317806
000130 80 b1 50 3c 49 33 ed 3d de 7e 10 3d ed 8d b0 3d
       0.012737632 0.115820475 0.03527724 0.0862082
000140 ff 5a 15 3e be 8a 0d 3d ed 4f c0 be 48 d7 3d 3c
       0.14585494 0.034556143 -0.3756098 0.011586972
000150 73 37 bd bd b9 46 ea bc 16 bf 05 3d d1 81 1a 3e
       -0.09239092 -0.028598176 0.032652937 0.15088584
000160 ca 34 45 bd 7d d2 27 3d 8b 10 74 bd 56 24 72 3e
       -0.048146047 0.04097222 -0.05958609 0.23646674
000170 f8 60 8c be 20 60 c8 3e 96 ef e1 3e d2 c2 18 3e
       -0.2741773 0.39135838 0.44128102 0.14918068
000180 a2 86 59 3d 70 29 d2 3d f5 20 9e 3d 14 b6 ca 3d
       0.05310691 0.1026181 0.0772113 0.0989801
000190 fd ab d5 3d 99 60 2c bd 3a ba 2b 3c 53 27 c0 3e
       0.10433195 -0.04208431 0.010481412 0.37530002
0001a0 ee 14 c0 3d 38 05 94 3d ca 2c 90 3d bb 54 08 3e
       0.09378992 0.07227558 0.07039793 0.13313572
0001b0 71 3b 2b 3c 3c 50 fe bc 91 d2 4a 3e 50 f7 f5 3d
       0.010451184 -0.031044118 0.19806887 0.12010062
0001c0 02 c4 d3 bd bd b9 8a 3d 4d 0b c7 3d 60 d2 0c 3e
       -0.1034012 0.06773708 0.09718952 0.13752127
0001d0 a6 ee cd 3c 74 5b 8c 3e 71 a3 a6 3d ed 1d 19 3c
       0.02513821 0.27413523 0.08136643 0.009345514
0001e0 7f b6 1b bf 0f 95 ac 3c 5c 5d 5d 3e d5 b6 43 3d
       -0.6082534 0.02106717 0.21617645 0.047781784
0001f0 b4 d9 5f bf 48 a9 0c bf 73 a1 2c 3e 27 8c a9 3c
       -0.87441564 -0.549458 0.16858463 0.020696713
000200 17 c3 90 be f3 66 98 3e dd 18 97 3d 2d 62 1d 3e
       -0.28273842 0.29766044 0.07377789 0.15369482
000210 de d0 d9 3b 30 ed a4 be 66 ae 6c 3d be e1 a6 bd
       0.0066472134 -0.3221221 0.057783507 -0.08148526
000220 1a b3 3d bc 0c 48 9a 3b ec 38 09 3d 6e 1f a0 3c
       -0.011578346 0.0047082957 0.03350155 0.019546237
000230 53 50 d7 3d 39 af ce 3d 92 f0 ac bc 66 0f 0a 3d
       0.105133675 0.10092015 -0.021110807 0.03370609
000240 09 e6 b3 3d cf 1a 02 be c9 43 d1 3e 94 4c 04 3c
       0.0878411 -0.12705539 0.40872028 0.008074898
000250 96 f8 bd be 38 3d 02 3e 65 d1 8a 3d a9 9c d3 bd
       -0.3710372 0.12718666 0.0677822 -0.10332615
000260 23 c9 27 bd 5b 1d 44 be 20 12 09 be 12 eb 01 3e
       -0.040963303 -0.19151823 -0.1338582 0.12687328
000270 cc b2 79 bd 84 20 8c 3d 33 55 9d bd c7 5b f2 3d
       -0.06096153 0.06842139 -0.07682266 0.118339114
000280 4c 6f 77 3d 3f 83 c6 3d 3f e9 72 be a2 2c 23 3e
       0.060408875 0.09693002 -0.23721789 0.15934995
000290 82 b8 f6 3e 8e df c8 bd 56 f9 84 bd df 84 54 be
       0.48187643 -0.09808265 -0.064928696 -0.20753811
0002a0 cb 52 87 3d 7b fe ae 3d 99 63 d8 3d 28 52 2a 3e
       0.066075884 0.08544632 0.10565872 0.16632903
0002b0 8a 58 d6 3b 63 52 31 be ab 77 f7 3e b6 55 c9 3d
       0.0065413164 -0.17316584 0.48333487 0.09830801
0002c0 30 dd f1 3d e1 a0 c7 3d b6 35 6e bf 3b 67 8a 3d
       0.11809766 0.09747482 -0.93050706 0.06757971
0002d0 81 40 f2 be bb c4 4b 3e d2 e2 96 3d 27 2d 1c 3d
       -0.47314838 0.19899265 0.07367481 0.038128998
0002e0 63 3d 91 be 89 d0 7d 3d 7d 5e b3 bb 49 b4 89 3d
       -0.28367147 0.061966453 -0.0054739104 0.0672384
0002f0 b5 7a 2b 3d 06 2a 0b bc 9c d5 d4 bd 9c 9f 6f 3d
       0.04186507 -0.008493906 -0.10392305 0.058501825
000300 5d 53 9c be 6a 02 2e 3d cf 5e 22 3d 54 47 e2 3d
       -0.3053235 0.04248277 0.039641198 0.11048761
000310 3c 8d 0a 3d b8 32 b5 bc 6a f9 0e 3d 66 d9 bb bd
       0.033826098 -0.022118911 0.03490583 -0.09172325
000320 da 17 7e 3d 17 4e 41 3d 07 b6 09 3c bd 00 67 3d
       0.062034465 0.047193613 0.008405215 0.05639719
000330 37 a3 92 3d d0 c2 d9 3d c3 0e 94 3d 15 da 26 3d
       0.07160037 0.10632861 0.07229378 0.040735323
000340 9a ce 37 3e 50 20 f3 3d 9c 8b 74 3d 16 3d 87 3d
       0.17949906 0.118713975 0.059703454 0.06603448
000350 87 73 a9 3c 99 b7 f2 3e d0 56 fa bd 31 cd 16 3f
       0.02068497 0.474057 -0.122235894 0.5890685
000360 82 b0 d9 3d 1d 79 58 3e 4e d0 bc be 9e 0d 55 be
       0.10629369 0.21139951 -0.36877674 -0.20805976
000370 64 42 a9 3e 64 b6 5d be f6 aa 8a bd b5 cd c9 3d
       0.33058465 -0.21651608 -0.067708895 0.09853689
000380 a4 fd af 3d cd 2f cf 3d 25 28 7e be 0b c9 1e 3e
       0.085933 0.10116539 -0.24820001 0.1550638
000390 42 d8 87 bd 3c 04 d3 bd 71 f1 08 3e 48 e3 0c be
       -0.06633045 -0.10303542 0.13373353 -0.13758576
0003a0 48 94 54 3c 12 33 49 3d f9 15 8a 3d 22 0e e6 3d
       0.012974806 0.04912097 0.06742472 0.11233164
0003b0 a1 10 c8 bd 51 67 39 bd 74 30 28 be 2d 7d 26 3e
       -0.09768797 -0.045264546 -0.16424733 0.16258688
0003c0 8c 4f a1 3d bb 80 7b 3d 46 c1 4c 3e 06 40 92 3d
       0.078765005 0.061402064 0.19995603 0.07141118
0003d0 48 4d 9b 3d e8 a3 26 bd 95 2f 7f 3d ab 49 32 3d
       0.075830996 -0.040683657 0.062301237 0.043527286
0003e0 c2 ff 27 3d f3 7a 9a 3d 1d d0 f5 3a 30 db b6 3d
       0.041015394 0.07542982 0.0018754039 0.089285254
0003f0 b5 bf 45 3c 4c a3 d2 be cb f0 ab 3e 49 76 b5 3d
       0.012069632 -0.4114021 0.33582148 0.08860452

output.bias f4 [4]
000000 1c 1c a8 3f 0f d4 a2 3f 06 c4 a6 3f 28 56 a7 3f
       1.3133578 1.2720965 1.3028572 1.3073168
