data/ddqn-dropout/checkpoint-Train.pth (torch_old, 31093 bytes, 6 tensors)

hidden_layers.0.weight f4 [64, 37]
0.010418242 0.12452558 0.01804204 -0.26470572 -0.19200873 -0.052114494 0.12056494 0.20856082
0.055980545 0.33874083 0.03577265 -0.11100977 -0.16712321 -0.04365074 -0.013708315 0.40716478
-0.6412105 -0.31258425 -0.470605 -1.2730179 0.13273762 0.15263 0.05666388 0.021549227
-0.11725356 0.012275267 0.09369032 -0.18594421 0.063499436 0.28860787 -0.0057936762 0.05457715
-0.13876973 -0.38910416 -0.8031507 -0.06891412 0.032591194 -0.7328937 0.16428584 -0.1703568
0.048332077 -0.102896065 -0.09371204 -0.33373865 -0.8842501 -0.7092761 0.03634734 -0.45173332
-0.8053833 -0.25487775 0.38122207 -0.809507 -0.8128005 0.054641556 -0.009665839 0.1151451
0.33702728 -0.7190462 -0.71193206 0.07606741 -0.24148057 -0.090307474 -0.3277971 -0.68855286
0.06039266 -0.750283 -0.3699228 -0.0669148 0.008772475 -0.6720305 0.013965679 -0.25958666
0.46274257 -0.18518783 -0.0055722957 0.27800637 -0.40035632 0.35088414 0.070830755 0.12257706
-0.54371506 -0.029310599 -0.29220375 -1.2707424 -0.05231802 -0.080022536 -0.12451374 -0.015439939
-0.0311048 -0.594696 -0.18833695 0.27697313 -0.13261087 0.14939997 -0.8320431 -0.100519836
0.16823666 -0.032374192 0.2700379 -0.3349357 0.26108408 0.024066817 -0.1759681 -0.04490186
-0.35641816 -0.09585885 0.011087781 -0.47295234 0.17158668 0.06716063 -0.046560533 0.041781545
-0.010164395 0.03443363 -0.00011348515 -0.027569136 -0.061346363 0.036802977 0.16368003 0.34129912
0.59505033 -0.00643663 0.031216837 -0.03504974 -0.05149187 -0.15067095 -0.06584044 -0.012072774
-0.08574756 -0.061064575 0.021984888 0.53387177 -1.1500725 -0.9231728 -0.8572263 -3.4539573
0.031365767 0.13217331 0.07821317 0.14237793 0.2360248 -0.035332512 0.12020159 0.06098778
0.07330383 0.011550927 0.0075292494 0.0046701496 -0.17533104 -0.12829019 -0.14980239 -0.107417874
0.21832243 -0.2656143 -0.23944564 0.006389439 0.4639265 1.4072901 -0.24544087 -0.1570677
-0.1600462 0.02543099 0.2841564 -0.2876565 -0.21028976 -0.23438932 -0.03439718 0.2516121
-0.18878113 -0.48367402 -0.108219184 0.08135796 0.5379962 -0.16306716 -0.19155644 -0.014477425
0.14219372 0.6356151 -0.24593109 -0.23728992 -0.19470002 0.1870184 0.5783101 0.025388284
-0.013682269 0.066323124 0.00981284 0.0003747967 0.10423552 0.06684154 0.069147594 0.31222215
0.29702768 0.26900974 -0.021329116 -0.016589219 -0.0638193 0.003667157 -0.020093922 0.13993165
-0.0023413277 0.0076482175 0.083398044 0.11579515 0.11151474 0.15104678 0.11665539 0.12659898
0.109911345 0.09343067 -0.0014664143 0.016522694 0.062492408 0.07698114 0.19091147 0.39082608
-1.059456 -0.92774826 -1.1163212 -3.6278322 -0.013467871 0.009979648 -0.077141665 -0.07300388
-0.11293591 0.040095016 -0.062088028 -0.20383151 -0.25179908 0.101383284 0.12557836 0.16057102
0.005745488 -0.015743064 0.074761644 0.10942054 0.3962801 -0.061102405 0.10181193 -0.12575722
0.120413505 0.1715708 -0.22824553 -0.41375643 -0.07721071 0.32495606 0.6627722 -0.36433452
-0.007687031 -0.079259895 -0.049022295 0.3504231 0.0016007882 -0.43411994 0.040024582 0.38283268
00000000: 46b1 2a3c 4407 ff3d e6cc 933c 8287 87be
00000010: f09d 44be 0276 55bd c0ea f63d f890 553e
00000020: db4b 653d 706f ad3e 5886 123d 1759 e3bd
00000030: 5922 2bbe 1ecb 32bd d798 60bc e777 d03e
00000040: 5f26 24bf 0b0b a0be 23f3 f0be 40f2 a2bf
00000050: 5fec 073e 0a4b 1c3e 6218 683d 0188 b03c
00000060: a222 f0bd 341e 493c b6e0 bf3d 2968 3ebe
00000070: fe0b 823d 69c4 933e e1d8 bdbb 4a8c 5f3d
00000080: a719 0ebe a938 c7be 499b 4dbf d922 8dbd
00000090: 587e 053d ec9e 3bbf 8c3a 283e 0372 2ebe
000000a0: dbf7 453d 2cbb d2bd 19ec bfbd cbdf aabe
000000b0: 375e 62bf 1e93 35bf f3e0 143d 9749 e7be
000000c0: 9a2d 4ebf 567f 82be 8a2f c33e da3b 4fbf
000000d0: b213 50bf d3cf 5f3d 785d 1ebc 32d1 eb3d
000000e0: d78e ac3e 6913 38bf 2e41 36bf 3bc9 9b3d
000000f0: af46 77be 20f3 b8bd 06d5 a7be 0045 30bf
00000100: 4b5e 773d 8c12 40bf 8566 bdbe a00a 89bd
00000110: 6dba 0f3c 310a 2cbf 4ed0 643c 8be8 84be
00000120: 98ec ec3e e1a1 3dbe ce97 b6bb da56 8e3e
00000130: 81fb ccbe 16a7 b33e b70f 913d ae09 fb3d
00000140: e930 0bbf c81c f0bc bb9b 95be b0a7 a2bf
00000150: 6c4b 56bd dbe2 a3bd 0f01 ffbd ccf7 7cbc
00000160: 7ecf febc ff3d 18bf 67db 40be 6ccf 8d3e
00000170: 25cb 07be 4efc 183e c700 55bf 58dd cdbd
00000180: 3b46 2c3e cd9a 04bd 6842 8a3e b17c abbe
00000190: d0ac 853e c627 c53c fb30 34be 03eb 37bd
000001a0: 717c b6be a551 c4bd 86a9 353c cf26 f2be
000001b0: 6bb4 2f3e 838b 893d 42b6 3ebd 2023 2b3d
000001c0: 9088 26bc 470a 0d3d e0fe edb8 abd8 e1bc
000001d0: 5346 7bbd b8be 163d bd9b 273e c2be ae3e
000001e0: 3855 183f 5eea d2bb 74ba ff3c 5190 0fbd
000001f0: 24e9 52bd 7c49 1abe 5ad7 86bd e2cc 45bc
00000200: 6b9c afbd d91e 7abd a719 b43c d2ab 083f
00000210: 9335 93bf 0d55 6cbf 2f73 5bbf a30d 5dc0
00000220: 6479 003d 7158 073e 3a2e a03d 85cb 113e
00000230: 7cb0 713e d3b8 10bd 402c f63d 53ce 793d
00000240: 5220 963d 1940 3d3c ecb7 f63b 0e08 993b
00000250: fb89 33be 815e 03be cc65 19be e7fd dbbd
00000260: ea8f 5f3e 99fe 87be 3d31 75be 805e d13b
00000270: c687 ed3e 1522 b43f da54 7bbe 5bd6 20be
00000280: 27e3 23be a754 d03c f37c 913e b647 93be
00000290: 3356 57be c103 70be 0fe4 0cbd 4dd3 803e
000002a0: d74f 41be 1fa4 f7be 05a2 ddbd 019f a63d
000002b0: 1eba 093f 14fb 26be 5f27 44be b932 6dbc
000002c0: 3b9b 113e acb7 223f 5cd5 7bbe 21fc 72be
000002d0: 715f 47be c081 3f3e 210c 143f 17fb cf3c
000002e0: 982b 60bc 6bd4 873d 09c6 203c 5d80 c439
000002f0: 6f79 d53d 38e4 883d 419d 8d3d 95db 9f3e
00000300: 0314 983e a5bb 893e 66ba aebc 1de6 87bc
00000310: b1b3 82bd af54 703b 029c a4bc 3e4a 0f3e
00000320: f670 19bb e69d fa3b 98cc aa3d 0226 ed3d
00000330: d761 e43d 02ac 1a3e 05e9 ee3d 2aa3 013e
00000340: 3319 e13d 9458 bf3d b334 c0ba 9a5a 873c
00000350: 0af8 7f3d 4aa8 9d3d 4c7e 433e 5b1a c83e
00000360: 419c 87bf e980 6dbf 9de3 8ebf 672e 68c0
00000370: 58a8 5cbc ad81 233c 73fc 9dbd 0f83 95bd
00000380: f14a e7bd ac3a 243d 0450 7ebd 35b9 50be
00000390: cfeb 80be 0aa2 cf3d 9d97 003e bb6c 243e
000003a0: a644 bc3b 99f7 80bc a21c 993d e017 e03d
000003b0: 3ae5 ca3e 8446 7abd c682 d03d 80c6 00be
000003c0: 5b9b f63d 41b0 2f3e 32b9 69be e2d7 d3be
000003d0: a620 9ebd a460 a63e 70ab 293f 0e8a babe
000003e0: 7de3 fbbb 0353 a2bd 9acb 48bd a86a b33e
000003f0: 8ad1 d13a f844 debe d1f0 233d a502 c43e

hidden_layers.0.bias f4 [64]
0.053128496 -0.29744914 -0.38714704 -0.04823449 -0.23901212 -0.082683586 -0.30753878 -0.19855823
-0.10680627 -0.4480658 0.056476947 -0.04156985 -0.03036154 -0.045769732 -0.1278638 -0.18045604
-0.15416431 -0.063431546 -0.28635976 -0.4229898 -0.15039483 0.06870074 -0.18185629 -0.3291503
-0.3407492 0.02714492 -0.16807775 -0.34982324 0.11531561 -0.08270406 -0.17451125 -0.36987326
-0.07271926 -0.17899507 -0.4024332 -0.16765536 -0.24169196 -0.14622882 -0.30034807 -0.3634448
-0.20569734 -0.15968056 -0.32342392 -0.0027465709 -0.31039718 -0.20423694 -0.12924333 -0.039622724
-0.26256996 -0.18592691 -0.2975732 0.13473627 -0.13613102 -0.07580234 -0.5569695 -0.12785126
-0.07501445 -0.3318742 -0.38457868 -0.17255718 -0.032696992 -0.21135315 0.029174786 -0.23646784
00000000: 449d 593d 414b 98be 2338 c6be 8791 45bd
00000010: 98bf 74be 0356 a9bd b975 9dbe d952 4bbe
00000020: 3fbd dabd e168 e5be 5f54 673d 2645 2abd
00000030: c4b8 f8bc 0b79 3bbd baee 02be 78c9 38be
00000040: 40dd 1dbe 66e8 81bd bf9d 92be 1e92 d8be
00000050: 1a01 1abe f9b2 8c3d 8938 3abe 6386 a8be
00000060: ae76 aebe 065f de3c 931c 2cbe 081c b3be
00000070: 972a ec3d bf60 a9bd 14b3 32be 0760 bdbe
00000080: d6ed 94bd 7c4a 37be b90b cebe d9ad 2bbe
00000090: 197e 77be 02bd 15be 39c7 99be 7015 babe
000000a0: 53a2 52be 4d83 23be d297 a5be d0ff 33bb
000000b0: 61ec 9ebe 7d23 51be 5d58 04be 704b 22bd
000000c0: 926f 86be a063 3ebe 845b 98be 4ef8 093e
000000d0: ee65 0bbe 423e 9bbd 8e95 0ebf 71eb 02be
000000e0: 2da1 99bd 6aeb a9be 7fe7 c4be d4b2 30be
000000f0: 48ed 05bd f66c 58be f6ff ee3c a024 72be

hidden_layers.1.weight f4 [64, 64]
-0.09886436 0.26015317 0.021337392 -0.42827156 0.010398885 -1.0241444 0.024915636 0.06197739
0.53294724 3.497151e-05 0.3238209 0.2318926 -0.2060928 0.08368376 0.2757202 0.09433236
0.076085456 0.021942234 0.048346717 -0.017193677 -0.049535464 -0.6664485 0.024537465 -0.030125294
0.3801438 -0.13168558 0.70987594 0.027525771 -0.11025955 0.2334667 0.07691096 0.077857815
-0.056227796 0.058234964 0.019059833 0.10867815 -0.0031533658 0.03019845 -0.11560774 -0.18997163
-1.8046142 -0.27589363 0.219592 0.022774307 0.04298187 -0.05069509 0.019495504 -1.2062886
0.03480324 0.07549827 -0.9145997 -1.9889057 0.05659669 -1.1920266 -0.019311363 -0.56172925
-0.049503867 0.035689335 0.015257884 -0.52318525 -0.27258143 -0.027820049 0.17036794 0.010418507
0.013442069 0.05445932 -0.11566496 0.00447963 0.0006076247 0.03889939 -0.104648985 0.013492432
-0.07031856 -0.12909341 0.006905401 0.09436499 -0.1369039 -0.023471909 -0.046975814 0.009542127
0.0014601725 0.01105401 -0.15416102 -0.060752768 0.007824351 -0.14114957 -0.038840663 -0.07006877
-0.05008109 0.025188167 -0.110705175 -0.10919578 0.050457407 -0.108964 0.079505675 -0.10466535
-0.022658098 -0.025419325 -0.0013590342 -0.10347679 -0.018710775 0.053744674 0.05273195 -0.09658845
-0.15957607 -0.032101817 -0.024336716 -0.10281794 -0.1580261 -0.107413165 -0.099760674 -0.080721974
-0.09162285 -0.16156545 -0.10257523 0.007649027 -0.08161695 -0.004880191 -0.04991494 0.036222357
-0.099768266 -0.059678435 0.006727177 0.049113084 -0.17877133 -0.04349962 -0.01138548 -0.102222726
-0.048077106 0.09325703 0.08822579 -0.102717586 0.043278296 0.14857917 -0.08426913 -0.2591523
-0.34414893 -0.030056523 -0.1330827 0.16985154 0.4758845 0.041975472 0.04111485 -0.15634423
0.12989263 -0.21110962 -0.13533504 -0.041267827 -0.2935719 0.3133046 -0.046558533 0.035835247
0.043942623 -0.039721567 -0.005564706 -0.00435789 -0.15233195 0.10628357 0.0519758 0.052944947
-0.097108155 -0.037729293 -0.02738617 -0.036824774 -0.05515934 -0.123904616 -0.030162547 0.04222424
0.13692561 0.036017 -0.054138944 -0.03657755 -0.046365056 -0.016761595 -0.04124789 -0.09738021
-0.023605954 0.03935479 0.33585194 0.038423177 -0.6499248 0.122769326 0.073431045 0.2794962
0.048644677 -0.07689671 -0.06739624 -0.042177092 -0.042130783 -0.18578376 -0.29551426 -0.022947652
-0.20732217 -0.30151513 -0.6400322 0.05150485 -0.5019749 -0.4303453 0.031817917 -0.33163565
0.07839008 -0.16492915 0.0053156144 0.4818113 0.004538013 -0.6157207 0.053037286 0.05818632
-0.46629876 -0.030274287 0.059067648 -0.23251194 0.103404894 -0.32629406 -0.06326385 -0.05900165
0.32938874 -0.41360712 0.6103816 -0.40094656 -0.02283211 -0.2183898 0.014441247 -0.56576055
-0.039045513 -0.09878809 -0.3289588 -0.240497 0.0043072673 0.17277527 0.018285003 -0.069923975
-0.5759292 0.16327223 0.2329127 -0.46873727 -0.5302826 -0.5005635 -0.09180993 -0.38461947
-0.0030777005 -0.03246834 -0.76476383 0.029361995 -0.06830174 -0.3904821 -0.27218014 0.11837688
-0.0009066714 -0.37696403 -0.63515425 -0.16254255 -0.8039339 0.19366087 -0.1850934 -0.09320437
00000000: 6679 cabd cc32 853e c1cb ae3c 6946 dbbe
00000010: 1660 2a3c 2a17 83bf e01b cc3c 01dc 7d3d
00000020: 3b6f 083f 5fae 1238 dacb a53e 4175 6d3e
00000030: fe09 53be 6462 ab3d 332b 8d3e 5331 c13d
00000040: b1d2 9b3d 33c0 b33c 3507 463d c1d9 8cbc
00000050: b3e5 4abd 5e9c 2abf cb02 c93c 52c9 f6bc
00000060: 35a2 c23e 96d8 06be 6eba 353f ba7d e13c
00000070: c2cf e1bd e511 6f3e 7e83 9d3d eb73 9f3d
00000080: 1e4f 66bd c987 6e3d 5e23 9c3c a692 de3d
00000090: b3a8 4ebb bd62 f73c c0c3 ecbd ec87 42be
000000a0: 99fd e6bf ee41 8dbe badc 603e 2f91 ba3c
000000b0: c20d 303d a8a5 4fbd 09b5 9f3c aa67 9abf
000000c0: d88d 0e3d d69e 9a3d 3523 6abf 7694 febf
000000d0: eed1 673d 5494 98bf dd32 9ebc 7dcd 0fbf
000000e0: 91c4 4abd fb2e 123d 34fc 793c 78ef 05bf
000000f0: cb8f 8bbe dfe6 e3bc ef74 2e3e 63b2 2a3c
00000100: 203c 5c3c bc10 5f3d c0e1 ecbd dcc9 923b
00000110: 0149 1f3a f754 1f3d 3552 d6bd 5d0f 5d3c
00000120: 2d03 90bd 1031 04be b446 e23b 6f42 c13d
00000130: 8930 0cbe 2948 c0bc b669 40bd 9556 1c3c
00000140: 4263 bf3a e11b 353c 63dc 1dbe e5d7 78bd
00000150: b531 003c 8389 10be 6317 1fbd 3780 8fbd
00000160: d421 4dbd 6a57 ce3c 65b9 e2bd 09a2 dfbd
00000170: 6dac 4e3d 8528 dfbd dfd3 a23d c95a d6bd
00000180: 7a9d b9bc 303c d0bc 9f21 b2ba a4eb d3bd
00000190: 5747 99bc 6023 5c3d 75fd 573d 2ad0 c5bd
000001a0: e967 23be 327d 03bd cb5d c7bc 3692 d2bd
000001b0: 98d1 21be 6ffb dbbd 534f ccbd 9051 a5bd
000001c0: c3a4 bbbd 6a71 25be f612 d2bd b0a4 fa3b
000001d0: ca26 a7bd 02ea 9fbb 9c73 4cbd e55d 143d
000001e0: 4e53 ccbd 6071 74bd a76f dc3b cd2a 493d
000001f0: d50f 37be a82c 32bd 2a8a 3abc 265a d1bd
00000200: 80ec 44bd 8bfd be3d b9af b43d 995d d2bd
00000210: 9544 313d 2325 183e 4b95 acbd 9caf 84be
00000220: 4a34 b0be 1939 f6bc d546 08be 90ed 2d3e
00000230: 22a7 f33e 79ee 2b3d 0c68 283d b418 20be
00000240: 9302 053e 1f2d 58be 4595 0abe 7408 29bd
00000250: 0e4f 96be 7669 a03e 29b4 3ebd fbc7 123d
00000260: 2efd 333d 15b3 22bd 2358 b6bb a2cc 8ebb
00000270: e8fc 1bbe 33ab d93d 94e4 543d cddc 583d
00000280: a4e0 c6bd 088a 1abd f658 e0bc 93d5 16bd
00000290: c3ee 61bd b4c1 fdbd 7217 f7bc 53f3 2c3d
000002a0: 3a36 0c3e 9086 133d ccc0 5dbd 57d2 15bd
000002b0: 49e9 3dbd 9d4f 89bc 8cf3 28bd 476f c7bd
000002c0: 4661 c1bc 7d32 213d c9f4 ab3e 9f61 1d3d
000002d0: 7961 26bf 7c6e fb3d 0463 963d 201a 8f3e
000002e0: a43f 473d 067c 9dbd 0a07 8abd e3c1 2cbd
000002f0: 5491 2cbd 193e 3ebe a54d 97be b7fc bbbc
00000300: 434c 54be 3160 9abe 26d9 23bf c0f6 523d
00000310: 6d81 00bf 3856 dcbe 8153 023d 26cc a9be
00000320: fa8a a03d 30e3 28be 9b2e ae3b f9af f63e
00000330: 9db3 943b df9f 1dbf a03d 593d c754 6e3d
00000340: b6be eebe c801 f8bc ebf0 713d 9c17 6ebe
00000350: f2c5 d33d 0410 a7be 7a90 81bd b7ab 71bd
00000360: a4a5 a83e 50c4 d3be f841 1c3f de48 cdbe
00000370: 680a bbbc 93a1 5fbe fb9a 6c3c afd5 10bf
00000380: 30ee 1fbd 6951 cabd 4a6d a8be d844 76be
00000390: fa23 8d3b 00ec 303e 6eca 953c 4d34 8fbd
000003a0: 1970 13bf d630 273e ab80 6e3e 55fe efbe
000003b0: 9ac0 07bf ee24 00bf d806 bcbd d8ec c4be
000003c0: 3fb3 49bb 86fd 04bd 90c7 43bf 9188 f03c
000003d0: c8e1 8bbd 45ed c7be 325b 8bbe 946f f23d
000003e0: b0ad 6dba 6e01 c1be 7899 22bf 8e71 26be
000003f0: 9dce 4dbf 094f 463e 2089 3dbe efe1 bebd

hidden_layers.1.bias f4 [64]
0.13164377 -0.16937442 0.11620823 -0.25578707 0.18206316 -0.043034814 -0.20678465 0.22188434
0.23024629 -0.006916067 -0.33814836 0.35693595 0.13260369 -0.18733181 -0.00011264593 -0.26056042
0.3122809 0.22255753 0.18232682 -0.07551274 -0.0799308 0.0930366 0.03871071 0.09366807
-0.20565008 -0.21378437 -0.05149327 0.043134548 -0.16155158 0.23195703 0.015520596 0.23386937
0.16912898 0.056016017 -0.34791526 -0.19885342 0.0040347977 -0.29866308 0.15721592 -0.29897112
-0.2261501 0.28472957 0.16157301 0.16974042 0.18241675 0.08761674 0.0396778 0.06854858
0.19188628 0.118816786 0.097706616 0.3306515 0.22603197 -0.18306252 0.112061135 -0.30631304
-0.45685098 0.29596835 0.09075804 -0.1688373 0.2119435 0.12792915 0.24892707 0.10640504
00000000: a0cd 063e 7d70 2dbe 95fe ed3d 86f6 82be
00000010: c46e 3a3e 4645 30bd 5bbf 53be a635 633e
00000020: afc5 6b3e 2da0 e2bb c821 adbe 4fc0 b63e
00000030: 43c9 073e e9d3 3fbe 533c ecb8 2d68 85be
00000040: 48e3 9f3e 1fe6 633e e2b3 3a3e 6ca6 9abd
00000050: c2b2 a3bd f989 be3d 1f8f 1e3d 0cd5 bf3d
00000060: ef95 52be 4aea 5abe 9bea 52bd daad 303d
00000070: c76d 25be 2586 6d3e 194a 7e3c 747b 6f3e
00000080: 2630 2d3e 0d71 653d f321 b2be 3ba0 4bbe
00000090: 5636 843b 5eea 98be 36fd 203e be12 99be
000000a0: e493 67be 13c8 913e 6573 253e 6fd0 2d3e
000000b0: 75cb 3a3e 6870 b33d 3085 223d 3363 8c3d
000000c0: d67d 443e 3756 f33d 681a c83d 274b a93e
000000d0: ed74 673e be74 3bbe 4f80 e53d 10d5 9cbe
000000e0: 5fe8 e9be 2a89 973e 5adf b93d afe3 2cbe
000000f0: b807 593e dcff 023e bde6 7e3e e3ea d93d

output.weight f4 [4, 64]
-0.16184115 0.062377837 0.04463071 -0.22448562 0.06389561 0.13136166 0.048349712 -0.10769765
0.061538946 -0.23641098 0.0005212021 0.075213976 0.07630098 0.01680315 0.11999824 -0.2785203
0.056496695 0.03456184 0.06675896 -0.06093728 -0.00013665152 0.057681847 0.09336881 0.056356724
0.00879791 -0.0079486 -0.38123238 0.19320813 0.0033501252 0.08792003 -0.07143185 0.07945161
0.06211875 0.19015096 0.16879058 -0.0075288066 -0.06940404 0.05045608 0.03517578 -0.068085276
0.05866079 -0.1067483 0.07170237 0.05626897 0.04410869 0.0706078 0.17751262 -0.012515836
-0.123884566 0.044986032 -0.07519561 0.080754794 0.07155008 -0.029115349 0.04435738 -0.037015565
0.0060306764 0.064363 0.058935385 0.03340489 -0.065657325 0.027348736 0.050548743 0.054601658
-0.009802158 -0.034357663 0.055051237 -0.08443309 0.06408598 0.07548688 -0.03654758 -0.050788544
0.04236766 -0.094230495 -0.028226588 0.07956087 0.028510721 0.0068183606 0.11230535 0.15839665
0.07840162 0.05382303 0.053350963 0.29472476 0.008582661 0.04161485 0.13228966 0.047962468
0.039351996 -0.012955024 -0.07265507 0.16713825 -0.02359402 0.045159347 0.1280863 0.0830685
0.08777245 0.24043788 0.120868064 -0.012563872 -0.06321189 -0.2284696 0.051666565 -0.06804645
0.0630769 -0.030372275 0.09970525 0.04286143 0.057468332 0.065632425 0.16228867 -0.034642726
-0.027947148 0.050640866 -0.0324898 0.058304496 0.08849598 0.010110095 0.054275714 0.03753623
-0.14975117 0.05093282 0.068489164 -0.06274934 -0.085723504 0.055477962 0.045051258 0.04568614
-0.0065008583 0.0049963943 0.08406209 -0.12889239 0.079991266 0.13208957 0.1454301 -0.050533716
0.033058558 -0.1656946 -0.10181693 0.116675146 0.090117 -0.017022818 0.09862175 0.020349476
0.05418012 0.023625372 -0.00020894334 -0.17752977 0.009924347 0.061783317 0.14483558 0.07083274
0.12808791 -0.033358477 -0.0088371085 0.22195934 0.08190587 -0.063642904 -0.12811404 0.040655054
-0.14201991 0.23336947 0.12005281 0.039835982 -0.041075137 0.21434261 0.031836543 -0.283744
0.04427552 -0.052447084 0.080677725 0.08837998 0.040176272 0.092988536 0.13664366 0.22107425
-0.03651825 0.06426898 -0.10384002 0.0067878678 0.010902885 0.017019238 0.08164853 0.07356368
-0.09967443 0.042299483 0.0675579 0.0003883742 -0.054125942 0.09402632 -0.0016928618 0.08041325
-0.0535352 0.039702408 0.04637821 -0.51588035 0.038318545 0.19466066 0.025892194 -0.092234805
0.1037076 0.030915167 -0.20290941 0.1585957 0.103970125 0.0065928944 0.090087496 -0.18024549
0.06969989 0.05914353 0.06829664 -0.1302473 -0.028343556 0.081321664 0.12203152 0.08218151
0.011067757 -0.03012999 0.07037621 0.07586292 -0.05572424 -0.19030166 0.17476295 0.045346793
0.10475962 0.24485783 -0.08407762 -0.053805273 -0.22658873 0.078188464 0.07974441 -0.1626983
-0.06864012 0.006319625 0.039603107 0.05159306 0.08432278 0.037942108 0.1710446 -0.1493188
-0.08201323 0.054714125 -0.035680436 0.02721168 0.00460377 -0.0220237 0.0049676243 0.049486108
-0.18166253 0.07048273 0.0037103829 -0.017222306 -0.12536916 0.04774538 -0.028193997 0.049426947
00000000: b0b9 25be e77f 7f3d b1ce 363d 8fdf 65be
00000010: b4db 823d ac83 063e 590a 463d 9690 dcbd
00000020: 4310 7c3d b815 72be 48a1 083a c909 9a3d
00000030: b043 9c3d c2a6 893c a3c1 f53d 369a 8ebe
00000040: 1469 673d b790 0d3d ecb8 883d 5f99 79bd
00000050: 1d4a 0fb9 cd43 6c3d 2638 bf3d 4fd6 663d
00000060: 1c25 103c d83a 02bc e430 c3be 5ad8 453e
00000070: c68d 5b3b 6b0f b43d dd4a 92bd 87b7 a23d
00000080: 3b70 7e3d efb6 423e 70d7 2c3e 35b4 f6bb
00000090: b523 8ebd 09ab 4e3d 7b14 103d 4b70 8bbd
000000a0: 4c46 703d da9e dabd b1d8 923d 4b7a 663d
000000b0: 50ab 343d d29a 903d dec5 353e 390f 4dbc
000000c0: 31b7 fdbd 4643 383d 2800 9abd c562 a53d
000000d0: d988 923d 5083 eebc 16b0 353d a29d 17bd
000000e0: fb9c c53b c0d0 833d 3b66 713d 91d3 083d
000000f0: 5977 86bd 750a e03c 330c 4f3d fda5 5f3d
00000100: 3b99 20bc 9fba 0cbd 687d 613d 42eb acbd
00000110: 833f 833d de98 9a3d eab2 15bd a607 50bd
00000120: b689 2d3d ebfb c0bd 723b e7bc cff0 a23d
00000130: 518f e93c 8e6c df3b 5900 e63d bb32 223e
00000140: 0791 a03d 8a75 5c3d 8a86 5a3d 2ae6 963e
00000150: 4a9e 0c3c 5574 2a3d f176 073e 4b74 443d
00000160: 8f2f 213d 4f41 54bc 2ecc 94bd 4a26 2b3e
00000170: 3f48 c1bc 02f9 383d 0e29 033e d11f aa3d
00000180: 0bc2 b33d 5935 763e ad89 f73d b3d8 4dbc
00000190: 3c75 81bd eff3 69be 52a0 533d f05b 8bbd
000001a0: 762e 813d 47cf f8bc 4432 cc3d 788f 2f3d
000001b0: ea63 6b3d 4b6a 863d 002f 263e 88e5 0dbd
000001c0: 6bf1 e4bc cc6c 4f3d 0614 05bd b2d0 6e3d
000001d0: 613d b53d d0a4 253c 3650 5e3d 97bf 193d
000001e0: 5f58 19be ef9e 503d 0c44 8c3d ba82 80bd
000001f0: ce8f afbd dc3c 633d ab87 383d 6421 3b3d
00000200: 2705 d5bb cbb8 a33b bf28 ac3d 5efc 03be
00000210: 76d2 a33d 7d42 073e a1eb 143e 71fc 4ebd
00000220: 6968 073d d8ab 29be 6585 d0bd 61f3 ee3d
00000230: 438f b83d 7073 8bbc 33fa c93d f2b3 a63c
00000240: f9eb 5d3d ff89 c13c cd17 5bb9 5dca 35be
00000250: ba99 223c 8110 7d3d c74f 143e c110 913d
00000260: 7a29 033e e6a2 08bd 85c9 10bc 4f49 633e
00000270: 44be a73d 3657 82bd 5430 03be ea85 263d
00000280: ab6d 11be 68f8 6e3e 3fde f53d 0e2b 233d
00000290: 673e 28bd a17c 5b3e 0967 023d e546 91be
000002a0: 3f5a 353d c1d2 56bd 5d3a a53d 9000 b53d
000002b0: e08f 243d c670 be3d 51ec 0b3e 4a61 623e
000002c0: 2994 15bd 749f 833d 14aa d4bd c36c de3b
000002d0: 04a2 323c ee6b 8b3c 5837 a73d 8ea8 963d
000002e0: 1c22 ccbd 3942 2d3d cc5b 8a3d b49e cb39
000002f0: 2ab3 5dbd df90 c03d 04e3 ddba b4af a43d
00000300: ba47 5bbd fe9e 223d 14f7 3d3d bc10 04bf
00000310: e8f3 1c3d 2055 473e de1b d43c 9ae5 bcbd
00000320: a664 d43d ce41 fd3c 7cc7 4fbe e966 223e
00000330: 4aee d43d 3509 d83b cb7f b83d 4692 38be
00000340: d1be 8e3d 7c40 723d 1cdf 8b3d 8c5f 05be
00000350: bf30 e8bc f98b a63d a9eb f93d c84e a83d
00000360: 8a55 353c 2bd3 f6bc 6721 903d 055e 9b3d
00000370: 1a3f 64bd 70de 42be 0ff5 323e 8fbd 393d
00000380: 368c d63d 03bc 7a3e e330 acbd eb62 5cbd
00000390: e006 68be 4621 a03d 0a51 a33d 629a 26be
000003a0: 3193 8cbd db14 cf3b de36 223d 3f53 533d
000003b0: 6cb1 ac3d 2f69 1b3d 5126 2f3e 07e7 18be
000003c0: 8df6 a7bd eb1b 603d a625 12bd 07eb de3c
000003d0: 39db 963b 0c6b b4bc 74c7 a23b f2b1 4a3d
000003e0: be05 3abe 4059 903d e529 733b cb15 8dbc
000003f0: c660 00be a990 433d 19f7 e6bc e973 4a3d

output.bias f4 [4]
1.3431519 1.2230564 1.2664198 1.2618809
00000000: 67ec ab3f 1d8d 9c3f 0b1a a23f 5085 a13f
