data/dqn-vanilla/checkpoint-Train.pth (torch_old, 32709 bytes, 6 tensors)

hidden_layers.0.weight f4 [64, 37]
0	0x3d77ba00	0.060480118
1	0xbe0aa57a	-0.13539687
2	0x3d6361af	0.05551308
3	0xbf0c4ca9	-0.54804474
4	0xbe99e412	-0.30056816
5	0x3dfe882b	0.12428316
6	0x3d903504	0.07041362
7	0xbe04b3a3	-0.12959151
8	0xbec27799	-0.3798187
9	0x3f00a8cc	0.50257564
10	0xbd8dbfdc	-0.0692136
11	0xbe6b13c9	-0.22956766
12	0xbde553c2	-0.11197616
13	0xbe05e165	-0.13074262
14	0xbd7e3fcf	-0.06207257
15	0xbe6e249e	-0.23256156
16	0x3df57c17	0.11986559
17	0x3d181079	0.037125085
18	0xbc038f54	-0.008029778
19	0x3e173a31	0.14768292
20	0x3db67803	0.08909609
21	0x3e237e30	0.15966105
22	0xbb7144f0	-0.0036814772
23	0xbd9c4721	-0.07630754
24	0x3c154ad5	0.00911208
25	0x3e5bd186	0.21466646
26	0xbde4bc43	-0.111687206
27	0xbe59e798	-0.21279752
28	0xbd8617e5	-0.06547526
29	0xbc9bc9fd	-0.019017214
30	0x3e75d818	0.24008214
31	0xbe9f67e3	-0.31133947
32	0xbf04b9ba	-0.51845896
33	0xbe8b5fdf	-0.2722158
34	0xbf920ad0	-1.140955
35	0xbe0a05da	-0.13478795
36	0xbd13f8be	-0.03612589
37	0xbd1efe18	-0.03881654
38	0x3e412df5	0.18865187
39	0xbdf34353	-0.118780755
40	0xbe7215c6	-0.23641118
41	0xbec950c4	-0.39319432
42	0x3d3b0c2a	0.045665897
43	0xbd407e45	-0.04699542
44	0xbe812727	-0.25225183
45	0x3ce71669	0.028208928
46	0xbf2b2db0	-0.6686659
47	0x3e00f9d8	0.12595308
48	0xbe1ec5e0	-0.15505171
49	0x3dd24cc4	0.10268548
50	0x3e34a7bc	0.1764211
51	0x3db39d3a	0.08770223
52	0xbe9136b0	-0.28362036
53	0xbb80e4c4	-0.003933521
54	0x3e822ee7	0.2542641
55	0x39311f8b	0.00016891786
56	0xbf0b3537	-0.54378074
57	0xbe333348	-0.17500031
58	0xbca58ec6	-0.020209681
59	0xbe1b8d61	-0.1519065
60	0xbb58b8ce	-0.0033069137
61	0x3dc22533	0.094797514
62	0xbeb6441c	-0.35598838
63	0x3e9df2ff	0.30849454
64	0xbe91800b	-0.28418002
65	0xbe91ca53	-0.28474674
66	0xbf1dafd2	-0.61596406
67	0x3de5539a	0.11197586
68	0x3c0a8008	0.008453377
69	0x3df15bcf	0.11785089
70	0x3d8d168e	0.068890676
71	0x3b88ace4	0.004171001
72	0x3d2dbfdc	0.0424193
73	0x3c7bbeb8	0.015365295
74	0xbd2f36f8	-0.04277703
75	0x3e989968	0.2980454
76	0x3d1fa7db	0.03897844
77	0xbed7aae5	-0.4212257
78	0xbe6cf530	-0.23140407
79	0xbf57f4a0	-0.84357643
80	0x3dffcc12	0.12490095
81	0x3d39581c	0.045250043
82	0xbd9dfbd2	-0.077140465
83	0xbe5de810	-0.21670556
84	0xbc34ba25	-0.011030708
85	0xbe5cb440	-0.21553135
86	0x3e01518f	0.12628768
87	0x3dd76e41	0.10519076
88	0xbe00d506	-0.12581262
89	0xbe09883b	-0.13430874
90	0x3e45ebfd	0.19328304
91	0x3e5798fe	0.21054456
92	0xbe920b21	-0.28524116
93	0xbcc38f37	-0.023872001
94	0xbe01a15f	-0.12659214
95	0xbddff018	-0.10934466
96	0x3e367995	0.17819817
97	0xbd867012	-0.065643445
98	0x3e08730c	0.13325137
99	0xbf3b888b	-0.73255223
100	0x3ea59b9b	0.3234528
101	0x3e5fafc0	0.21844387
102	0xbe36011f	-0.17773865
103	0xbe7fd90c	-0.2498514
104	0xbf0dd425	-0.5540183
105	0x3c54fa87	0.0129991835
106	0x3d9bc521	0.07605959
107	0xbcb167ac	-0.02165588
108	0xbcf277db	-0.029598167
109	0x3dc19765	0.09452704
110	0xbd5ec425	-0.054386277
111	0x3eed5554	0.46354163
112	0xbf609263	-0.8772337
113	0xbf0c2298	-0.54740286
114	0xbf406bd0	-0.7516451
115	0xc0327410	-2.788334
116	0x3d20b4db	0.039234977
117	0xbc2a2343	-0.010384384
118	0x3d2a9f73	0.04165597
119	0x3e3bd982	0.18344691
120	0x3db37b02	0.08763696
121	0x3ca21c3d	0.019788856
122	0xbdec3334	-0.11533204
123	0xbc219fcd	-0.00986476
124	0xbd83b891	-0.064316876
125	0x3bc4e9ba	0.0060093077
126	0xbe4e4cda	-0.20146504
127	0x3d4767c6	0.04868295
128	0xbcb9c28e	-0.022675779
129	0xbe2a28c8	-0.1661712
130	0x3d734f74	0.059401944
131	0xbbbaea6e	-0.0057042157
132	0x3d2b1573	0.041768502
133	0xbd4038e2	-0.046929248
134	0xbcd04bcb	-0.025426766
135	0x3dec9635	0.11552087
136	0x3d22e3b4	0.039767936
137	0xbda6e0b0	-0.081483245
138	0x3dcfbfbb	0.101439916
139	0x3e724011	0.23657252
140	0x3ea96972	0.3308826
141	0x3d83ba6e	0.06432043
142	0x3de054bf	0.10953664
143	0x3dc75d58	0.09734601
144	0xbcb3f4cf	-0.02196732
145	0xbdbd9237	-0.09256404
146	0x3dd4ad25	0.10384587
147	0xbbd3f021	-0.0064678346
148	0x3c919920	0.017773211
149	0xbe0e3bcb	-0.13889997
150	0xbea066ec	-0.31328523
151	0xbe515068	-0.20440829
152	0xbe3f3922	-0.18674138
153	0x3e7b01fc	0.24512476
154	0xbef2f431	-0.47451928
155	0xbf1f1a7d	-0.6214979
156	0xbe7d84f1	-0.24757744
157	0xbfe6cce0	-1.8031273
158	0xbd3bdfc7	-0.045867708
159	0x3ca4a78a	0.02009942
160	0xbcfcd5b1	-0.030863615
161	0xbe913a9b	-0.28365025
162	0xbdf4f79f	-0.119612925
163	0xbed8ab4b	-0.42318186
164	0xbc86defc	-0.01646375
165	0x3d8c2b90	0.068442464
166	0x3de67a2d	0.11253772
167	0xbdf04fef	-0.11733996
168	0xbe84bd87	-0.25925848
169	0x3ca09e00	0.01960659
170	0x3e460f6e	0.19341823
171	0xbd58ee8c	-0.05296187
172	0x3e1b8117	0.15185963
173	0xbc61a3b6	-0.013771942
174	0xbd878476	-0.06617062
175	0x3dbd9979	0.09257788
176	0x3e1a0c65	0.1504379
177	0xbe3998d8	-0.18124712
178	0xbe22ce0e	-0.15898916
179	0xbe00e52c	-0.12587422
180	0x3e09187e	0.1338825
181	0x3eab9276	0.33510178
182	0x3e3dac0a	0.18522659
183	0x3d26b708	0.040701896
184	0xbd565b0f	-0.052332934
185	0x3c8d43db	0.01724427
186	0xbd52c0a6	-0.051453255
187	0x3de9cbc4	0.11415818
188	0x3d938111	0.07202352
189	0xbd0e6665	-0.03476562
190	0x3f0a7536	0.540851
191	0xbf2a3ca4	-0.6649878
192	0xbf3de324	-0.74174714
193	0xbf16f280	-0.58963776
194	0xc0165e3a	-2.3495011
195	0xbc4c2f88	-0.012462504
196	0x3d815183	0.06314375
197	0x3b8f1175	0.0043660947
198	0xbd680ad8	-0.056650966
199	0x3a691761	0.00088917284
200	0x3d57e406	0.052707694
201	0x3e095682	0.13411906
202	0xbd87c175	-0.06628696
203	0x3cf68c88	0.030096307
204	0xbca79d8f	-0.020460872
205	0x3e30e86b	0.1727616
206	0x3e01f366	0.12690505
207	0x3d99096e	0.07472502
208	0x3e167e86	0.14696702
209	0x3cad8063	0.021179384
210	0x3dbe61e5	0.09296016
211	0x3ce19371	0.027536126
212	0x3dc88d04	0.097925216
213	0x3d22c1d5	0.039735634
214	0x3d5a8d11	0.053357188
215	0x3d1151a6	0.035478257
216	0x3c89219f	0.016739665
217	0x3d981791	0.0742637
218	0x3e15bf9f	0.14623879
219	0x3e4f7bef	0.2026212
220	0xbbbc079a	-0.005738211
221	0x3b7c5e67	0.0038508417
222	0xbe1d2c97	-0.15349041
223	0xbea7702f	-0.32702777
224	0x3dca6adb	0.09883662
225	0xbe2fed1f	-0.17180298
226	0x3c994e42	0.018714074
227	0xbed6f5fb	-0.41984543
228	0xbe692bec	-0.22770661
229	0x3e382a77	0.17984949
230	0xbd5711c6	-0.052507184
231	0x3eb0392b	0.34418616
232	0xbdaf101f	-0.08547997
233	0xbd343d14	-0.04400356
234	0x3de2504b	0.11050471
235	0xbe8aee6c	-0.27135026
236	0x3db48d9b	0.088160716
237	0x3d7afee2	0.06127823
238	0xbee9f006	-0.45690936
239	0x3d0483e3	0.03235234
240	0xbe775e3f	-0.24157046
241	0x3ec0513b	0.37561974
242	0xbe820f05	-0.25402084
243	0xbc098cc8	-0.008395381
244	0x3d8383af	0.06421601
245	0xbebdb63d	-0.370531
246	0x3d5d2e51	0.05399925
247	0xbf293b53	-0.66106147
248	0xbe3ea64c	-0.18618125
249	0x3d6c7b3e	0.05773472
250	0x3e60df97	0.21960293
251	0xbe96cace	-0.29451603
252	0x3c55a88d	0.013040674
253	0xbe02c3b2	-0.12769964
254	0x3b833e59	0.004005235
255	0xbe5c6d8e	-0.21526167

hidden_layers.0.bias f4 [64]
0	0x3da71cfa	0.08159824
1	0xbdd655f6	-0.104656145
2	0xbdef7e2f	-0.116939895
3	0xbba14fcb	-0.004922842
4	0x3e094265	0.13404234
5	0x3d6c8a7b	0.057749253
6	0xbe53e2da	-0.20692006
7	0xbb878308	-0.004135493
8	0x3c2a273b	0.01038533
9	0xbe790fad	-0.24322386
10	0x3e130234	0.14356309
11	0x3e86c1c1	0.26319697
12	0x3da404f7	0.080087595
13	0x3d7515ec	0.05983536
14	0xbdd337aa	-0.103133515
15	0xbda670ea	-0.081270054
16	0xbd2cbdc8	-0.042173177
17	0xbe04fcca	-0.12987056
18	0xbcbc505b	-0.022987535
19	0xbea647f0	-0.3247676
20	0xbe3f45b8	-0.1867894
21	0x3cbe7ab2	0.023251865
22	0x3d0d4e31	0.034498397
23	0xbdfa17e6	-0.122115895
24	0xbdf32e91	-0.11874116
25	0x3e2b17fb	0.16708367
26	0x3c9ff117	0.01952414
27	0xbe4ca0c6	-0.19983205
28	0x3c8f2e9c	0.01747828
29	0x3e89e22c	0.26930368
30	0xbe898b80	-0.26864243
31	0xbe21a2d4	-0.1578477
32	0x3e594bfc	0.21220392
33	0x3da2a606	0.07941823
34	0xbe52398c	-0.20529765
35	0x3d1f3645	0.038870115
36	0xbde7ed6d	-0.11324582
37	0xbd000736	-0.031256877
38	0xbe14586e	-0.14486858
39	0xbd8e6fec	-0.06954941
40	0xbd011cf9	-0.03152177
41	0xbe11e3ab	-0.14247005
42	0xbddedb76	-0.108817026
43	0x3ce231d8	0.027611658
44	0xbdf27d34	-0.11840287
45	0xbe59321d	-0.21210523
46	0xbddfaae0	-0.10921264
47	0xbe5a0e28	-0.21294463
48	0xbe09b6ac	-0.1344859
49	0xbd17979f	-0.03700983
50	0xbea99aae	-0.33125824
51	0xbe16310a	-0.14667144
52	0xbe3241b0	-0.1740787
53	0xbe97a229	-0.29615906
54	0xbe8aaaef	-0.27083537
55	0xbceede3a	-0.0291587
56	0x3b972ceb	0.004613509
57	0xbe0c21f9	-0.13684835
58	0xbb8f5824	-0.004374521
59	0xbde60158	-0.11230725
60	0xbd98d440	-0.074623585
61	0xbd198599	-0.037480924
62	0xbe1086a4	-0.14113861
63	0x3cad658b	0.021166584

hidden_layers.1.weight f4 [64, 64]
0	0xbdc485fd	-0.09595869
1	0x3ddd228f	0.10797607
2	0xbe461532	-0.19344023
3	0x3cf3ba67	0.02975197
4	0x3e0561cc	0.13025588
5	0xbde1a2c8	-0.11017376
6	0xbe936993	-0.28791484
7	0xbe0720ec	-0.13196152
8	0x3c32d071	0.010913954
9	0x3da7b4ca	0.0818878
10	0xbdcc18ba	-0.09965654
11	0xbe86bbf9	-0.26315287
12	0xbf01d3cf	-0.5071382
13	0x3e3ba88a	0.18326011
14	0xbe59c1b9	-0.21265306
15	0xbf152da7	-0.58272785
16	0xbee74ca1	-0.4517565
17	0xbcb02330	-0.021501154
18	0xbe6d6a16	-0.23185
19	0xbdac0bb0	-0.08400667
20	0xbde18b1b	-0.110128604
21	0xbe8ba6d5	-0.2727572
22	0x3e4aaba3	0.19792037
23	0xbdd7ca4e	-0.105366334
24	0xbf28c789	-0.65929466
25	0xbdeb4ef1	-0.11489666
26	0x3e69469a	0.22780839
27	0x3e0a85e1	0.13527633
28	0x3eb027d2	0.3440538
29	0xbe84700f	-0.25866744
30	0x3d4b42e8	0.049624354
31	0xbe61f767	-0.22067033
32	0x3ec1fd81	0.3788872
33	0x3dd49e8c	0.10381803
34	0xbd5d8a66	-0.054087065
35	0xbe120a05	-0.14261635
36	0xbdc462d8	-0.095891654
37	0xbcad276b	-0.02113696
38	0x3d79f880	0.061028004
39	0xbdc1ce22	-0.09463145
40	0xbe74902b	-0.2388312
41	0xbebe8c3b	-0.37216362
42	0xbcc9f6df	-0.02465385
43	0xbec5f509	-0.3866351
44	0xbe877b92	-0.26461464
45	0xbf1931bb	-0.5984151
46	0xbed20974	-0.41022837
47	0xbd42adf1	-0.047529165
48	0xbe8902e0	-0.26760006
49	0xbe317199	-0.1732849
50	0xbe2b1b46	-0.16709623
51	0xbcf82941	-0.030293109
52	0xbe7c4d1b	-0.24638788
53	0xbe6d1d40	-0.23155689
54	0xbd79065c	-0.06079708
55	0xbe21b593	-0.15791921
56	0xbeb7e316	-0.3591544
57	0x3ddb2851	0.10701049
58	0xbed83d4e	-0.42234272
59	0xbe9c90e2	-0.30579287
60	0xbdee627c	-0.11639878
61	0x3dd6f85d	0.1049659
62	0xbe534c6f	-0.20634626
63	0xbd7fee86	-0.062483333
64	0xbe8e90bd	-0.27844802
65	0xbddd1e72	-0.107968226
66	0xbe9fed92	-0.3123594
67	0xbce83be4	-0.02834887
68	0x3bf74928	0.0075465627
69	0x3dcea0a6	0.10089235
70	0xbe9ddb71	-0.30831483
71	0x3e0196b4	0.12655145
72	0xbed2d887	-0.41180822
73	0xbe841cd7	-0.25803253
74	0xbe03d7f3	-0.12875347
75	0x3e982237	0.29713604
76	0xbe96320c	-0.29335058
77	0x3e00c08d	0.12573452
78	0xbdde8c04	-0.108665496
79	0xbda87612	-0.08225645
80	0x3d30481c	0.04303752
81	0xbe0920fb	-0.13391487
82	0x3e435ba6	0.1907793
83	0xbe4ec6c3	-0.20193009
84	0x3d8a3797	0.06748884
85	0xbecb9522	-0.39762217
86	0xbe021cc9	-0.12706293
87	0xbe258908	-0.16165555
88	0xbe32c670	-0.1745851
89	0xbe451f70	-0.19250274
90	0xbd910c71	-0.07082451
91	0xbe3c1342	-0.18366721
92	0x3e87624f	0.2644219
93	0xbdfb244f	-0.12262785
94	0xbd1ca67f	-0.03824472
95	0xbe5ced54	-0.21574908
96	0x3e1d497d	0.15360065
97	0x3e894c01	0.268158
98	0xbe750391	-0.23927142
99	0xbec882ad	-0.39162198
100	0x3dce10d2	0.10061802
101	0xbe9476d4	-0.2899691
102	0xbd373b65	-0.044734377
103	0xbe84eb37	-0.25960705
104	0xbdb1a664	-0.086743146
105	0x3cb5782b	0.022152027
106	0xbe4c09d5	-0.19925626
107	0xbeb52619	-0.3538063
108	0xbdb0f03c	-0.08639571
109	0xbb69c559	-0.0035670607
110	0xbe09d15f	-0.13458775
111	0xbc92a5f6	-0.017901402
112	0x3e042d64	0.1290794
113	0xbea0afc0	-0.31384087
114	0xbdd366fe	-0.103223786
115	0x3d348304	0.04407026
116	0xbddba81f	-0.10725426
117	0x3e4cf895	0.20016702
118	0x3d44471b	0.047919374
119	0xbe5a0aa1	-0.21293117
120	0xbe2035c7	-0.15645514
121	0x3dcd5515	0.10025994
122	0x3e34d8b1	0.17660786
123	0x3e6b646a	0.22987524
124	0xbdb5a469	-0.088692494
125	0xbd999a8a	-0.07500179
126	0xbe84eb1b	-0.2596062
127	0xbec7bdc1	-0.39011958
128	0xbca53742	-0.02016795
129	0xbd2f3ec5	-0.04278447
130	0xbe4339d6	-0.19065031
131	0xbec0a580	-0.37626266
132	0x3db8f070	0.09030235
133	0x3e02a061	0.12756492
134	0xbe5fab1b	-0.21842615
135	0xbe265ef2	-0.16247156
136	0x3da93f70	0.08264053
137	0xbefdf9ff	-0.49604794
138	0xbe0802e4	-0.13282353
139	0x3e5487d4	0.2075494
140	0xbdedd538	-0.11612934
141	0x3e811a47	0.2521536
142	0xbbe1afc9	-0.0068874103
143	0x3e113e54	0.14183933
144	0xbe0aa02b	-0.13537662
145	0xbcd54ba6	-0.026037049
146	0x3e841e39	0.25804308
147	0x3d502205	0.050813694
148	0xbbbaa4b6	-0.0056959046
149	0x3e8bbe22	0.27293497
150	0xbdb66392	-0.0890571
151	0x3d042eef	0.032271322
152	0xbddc1a55	-0.1074721
153	0x3f0b9f5b	0.5454003
154	0x3df1ed25	0.1181281
155	0x3e3fc674	0.18728048
156	0x3dedcc1d	0.11611197
157	0x3e782450	0.24232602
158	0x3e89318a	0.26795608
159	0x3e428580	0.18996239
160	0xbe41aa0b	-0.18912522
161	0x3efa2436	0.48855752
162	0xbe38b7e4	-0.18038899
163	0x3e85b72f	0.2611632
164	0x3c9667e6	0.01836009
165	0x3dcde81e	0.100540385
166	0xbd9b62d1	-0.07587207
167	0x3e5ad35d	0.21369691
168	0x3ea349c9	0.3189223
169	0x3d20d029	0.039261017
170	0x3d58333d	0.05278324
171	0xbe2754c8	-0.16340935
172	0xbcc86e2e	-0.0244666
173	0xbe2840a0	-0.16430902
174	0x3e0075a6	0.1254488
175	0xbea3ef7e	-0.32018656
176	0x3d922d70	0.07137573
177	0xbe7ef649	-0.24898638
178	0xbe6b9c89	-0.23008932
179	0x3cff96cf	0.03119984
180	0xbd883d25	-0.066522874
181	0x3cd8e4a7	0.026476217
182	0xbdbfbc9e	-0.09362148
183	0x3cd5fe25	0.026122162
184	0xbdb24723	-0.087049745
185	0xbeb2ea81	-0.34944537
186	0x3e52da89	0.20591177
187	0xbd130389	-0.035892043
188	0xbdb03fb8	-0.086059034
189	0x3b0ad96e	0.0021186727
190	0x3c12d5ec	0.008962136
191	0x3e3654a7	0.1780573
192	0xbe87f655	-0.26555124
193	0xbda2f3e7	-0.07956677
194	0x3e0adb74	0.13560277
195	0xbeef8ded	-0.46787968
196	0xbddc552b	-0.10758432
197	0xbea1a96d	-0.31574574
198	0xbe0acbac	-0.13554257
199	0xbe99557b	-0.2994803
200	0x3d9bb4ea	0.07602866
201	0xbe65f1bf	-0.224555
202	0x3c071295	0.008244176
203	0x3e8862d3	0.26637897
204	0xbec646d4	-0.38725913
205	0x3e07ad2e	0.13249657
206	0x3ea45fb8	0.32104278
207	0xbe11f675	-0.14254172
208	0xbe5845c7	-0.21120368
209	0x3e419848	0.18905747
210	0x3d7cdbc5	0.061733026
211	0x3da73c9f	0.081658594
212	0x3c93bae7	0.018033458
213	0x3d00120c	0.03126721
214	0xbe8d8ede	-0.27648062
215	0xbe09a049	-0.1344005
216	0xbde7e9f5	-0.11323921
217	0xbdf40eb9	-0.119168706
218	0xbe1b4c83	-0.15165906
219	0x3e385334	0.1800049
220	0xbdcb845a	-0.099373534
221	0xbd620d35	-0.055188376
222	0xbd5434da	-0.051808216
223	0xbe7c758d	-0.24654217
224	0x3d8bff53	0.068358086
225	0xbdf63006	-0.120208785
226	0x3e364789	0.17800726
227	0x3e0f5c3c	0.14000028
228	0xbe57c94d	-0.21072884
229	0x3dbad324	0.09122303
230	0xbe316c09	-0.17326368
231	0xbda459eb	-0.08024963
232	0x3e2b384f	0.16720699
233	0xbebda374	-0.37038767
234	0x3e8275c8	0.25480485
235	0xbe705005	-0.23468025
236	0xbeed3850	-0.46332026
237	0xbe836b35	-0.2566773
238	0xbda36fba	-0.079802945
239	0x3b7a122e	0.0038157809
240	0x3e116137	0.14197241
241	0xbe20888c	-0.15677088
242	0xbe9b45f2	-0.30326802
243	0xbdf1da7b	-0.1180925
244	0x3d95a62a	0.07307084
245	0xbde34df6	-0.11098854
246	0xbd723679	-0.05913398
247	0xbd863106	-0.06552319
248	0x3d46d94f	0.048547085
249	0x3eaf1395	0.34194627
250	0xbe95e47c	-0.29275882
251	0x3ec2ed94	0.38071883
252	0xbe5b4fe5	-0.21417196
253	0xbebc2484	-0.3674661
254	0xbec2abca	-0.3802169
255	0xbea28d03	-0.31748208

hidden_layers.1.bias f4 [64]
0	0xbe2500b0	-0.16113544
1	0xbdee728e	-0.11642943
2	0x3e21f508	0.15816128
3	0xbdee4eb4	-0.11636105
4	0x3c95d822	0.018291537
5	0xbe1db915	-0.15402634
6	0xbe1ee705	-0.15517814
7	0xbdc23701	-0.094831474
8	0x3c86bfec	0.016448937
9	0x3ef7eb7a	0.48421842
10	0xbdb7918e	-0.08963309
11	0xbd0bccfb	-0.03413103
12	0x3dde2c97	0.108483486
13	0xbdc27ade	-0.09496091
14	0xbe0e00ed	-0.1386754
15	0x3db8cce3	0.09023454
16	0xbafb4eca	-0.0019173261
17	0xbe21232f	-0.15736078
18	0xbe3368ad	-0.175204
19	0x3dd6c197	0.10486143
20	0xbe43072a	-0.19045702
21	0x3f08cddd	0.5343912
22	0xbe60f7c6	-0.21969518
23	0xbe443057	-0.19159065
24	0xbe11322a	-0.14179292
25	0xbe3a160f	-0.18172477
26	0x3dd39a5e	0.103321776
27	0xbe13e3f2	-0.14442423
28	0xbdef26f0	-0.116773486
29	0x3d461dbf	0.04836821
30	0x3def38ec	0.11680779
31	0x3ceac334	0.028657533
32	0xbdb74f8d	-0.0895072
33	0x3d1e6cbb	0.038677912
34	0x3cfc8201	0.03082371
35	0xbe2b93b9	-0.1675557
36	0xbdf91c8c	-0.12163648
37	0xbe431dd3	-0.19054346
38	0x3e93fc09	0.28903225
39	0xbdffde38	-0.12493557
40	0x3d0fdea9	0.035124455
41	0x3f0f1266	0.5588745
42	0x3e34956e	0.17635128
43	0xbdad7f04	-0.08471492
44	0xbd7716bf	-0.060324427
45	0xbe49f7de	-0.1972346
46	0x3e3e5593	0.18587331
47	0xbe4869c4	-0.19571596
48	0xbe440c0c	-0.1914522
49	0xbe08b5b6	-0.13350567
50	0xbea71eb1	-0.32640603
51	0x3ed66c86	0.41879672
52	0xbda649bf	-0.08119535
53	0xbe1b4b27	-0.15165387
54	0x3d9869b1	0.07442034
55	0xbdfbee04	-0.12301257
56	0xbe0cdf14	-0.13756973
57	0xbe067a83	-0.13132672
58	0x3e0862a2	0.13318875
59	0xbe29537e	-0.16535756
60	0xbd5e0462	-0.0542034
61	0x3c4cefa9	0.012508311
62	0x3d668082	0.0562749
63	0xbe628e29	-0.22124542

output.weight f4 [4, 64]
0	0x3e5a2f13	0.2130702
1	0x3d9a764c	0.075420946
2	0x3e1efb5e	0.15525576
3	0xbea61ad4	-0.32442343
4	0xbd8096ba	-0.06278749
5	0x3c0789a6	0.008272564
6	0x3dbdda6f	0.092701785
7	0xbc81a3e3	-0.015825218
8	0x3d9ecc67	0.077538304
9	0x3e243ae5	0.16038091
10	0xbe7a3973	-0.24435978
11	0x3dc5f05e	0.09664987
12	0x3d58b461	0.052906398
13	0x3c653683	0.013990047
14	0xbc5812e6	-0.0131880995
15	0xbe0cfe0c	-0.13768786
16	0x3d82b24d	0.063816644
17	0x3d8937f7	0.067001276
18	0xbed61ff6	-0.4182126
19	0x3e3f7de7	0.18700372
20	0x3d8d4624	0.06898144
21	0x3e0c85f9	0.13722982
22	0xbe0daa7c	-0.13834566
23	0x3cafcd8b	0.021460315
24	0x3e6bdf25	0.23034342
25	0xbd57922d	-0.05262964
26	0xbea6fce9	-0.3261483
27	0xbdaba665	-0.083813466
28	0xbe5cc7c0	-0.21560574
29	0x3ebe08c7	0.37116072
30	0xbe5d314e	-0.2160084
31	0x3ce27270	0.027642459
32	0x3e93117b	0.28724274
33	0x3e04a496	0.1295341
34	0x3c7ec239	0.015549236
35	0xbd479770	-0.048728406
36	0x3af6396a	0.0018785421
37	0x3eb2d63d	0.34929076
38	0x3d62e85e	0.055397384
39	0x3d4f29a0	0.050576806
40	0x3eabf3e1	0.33584502
41	0x3e4a4233	0.19751815
42	0xbab788db	-0.0014002578
43	0x3cf1c8f5	0.02951477
44	0x3e429de8	0.19005549
45	0x3c915aa6	0.01774342
46	0x3e3016f4	0.17196256
47	0x3dd665bd	0.10468624
48	0xbe0c833d	-0.13721938
49	0xbb98d527	-0.0046640816
50	0xbddaf75d	-0.10691712
51	0x3e102e88	0.1408025
52	0x3d80c47b	0.06287476
53	0x3dac52a5	0.08414201
54	0x3e0dd909	0.13852324
55	0xbe5f5a9b	-0.21811907
56	0xbefb54d3	-0.49088153
57	0xbdcef291	-0.101048596
58	0x3ef06d1e	0.4695825
59	0xbce46b90	-0.027883321
60	0xbe098a0f	-0.13431571
61	0x3db71a41	0.089405544
62	0x3e244607	0.16042338
63	0xbbaf0598	-0.005341243
64	0xbae3db2c	-0.0017384044
65	0x3bc65476	0.006052549
66	0x3e1feab8	0.15616882
67	0xbe2d7b72	-0.16941622
68	0xbe6b41ca	-0.22974315
69	0xbe9da3fd	-0.30789176
70	0xbd4a3b8c	-0.049373195
71	0xbe835c89	-0.25656536
72	0x3e03517b	0.12824051
73	0x3e3ac1ef	0.18238042
74	0x3dbc8754	0.09205499
75	0x3e3485ad	0.17629118
76	0x3e30e7dd	0.17275949
77	0x3d4b37d5	0.049613792
78	0xbd3867b7	-0.045020785
79	0x3c64d6ef	0.01396726
80	0xbcf48b66	-0.029851627
81	0xbe3aad98	-0.18230283
82	0xbdf725d6	-0.120677635
83	0x3e33a376	0.17542824
84	0x3dee6d98	0.11641997
85	0x3e84560e	0.25846905
86	0xbe557ac7	-0.20847617
87	0x3df92f30	0.121672034
88	0xbcade11a	-0.0212255
89	0xbdc65c92	-0.09685625
90	0x3c9b5029	0.018959122
91	0x3d89eb74	0.06734362
92	0x3e982f49	0.29723576
93	0x3e472ae1	0.19449951
94	0xbc287069	-0.010280707
95	0x3dbee5e8	0.09321195
96	0x3e49abb5	0.19694407
97	0x3dce34df	0.10068678
98	0x3d9b1461	0.07572246
99	0xbe31acff	-0.17351149
100	0xbd5d8302	-0.054080017
101	0xbde9c860	-0.114151716
102	0x3cd694d8	0.026194021
103	0x3cfc8204	0.030823715
104	0x3e59cc03	0.2126923
105	0x3e39c7f7	0.18142687
106	0x3dd783c9	0.10523183
107	0x3dee8cd6	0.11647956
108	0x3e36bc4c	0.17845267
109	0x3d38cb40	0.04511571
110	0x3e0bef68	0.13665545
111	0xbc5e1a9c	-0.013556149
112	0xbbb56238	-0.00553539
113	0x3e21f863	0.15817408
114	0xbd014226	-0.031557225
115	0x3dadea6d	0.08491979
116	0x3ea2dfe1	0.3181143
117	0xbd84d967	-0.06486779
118	0x3e1ad10e	0.1511881
119	0x3e04d283	0.12970929
120	0xbdd0fe7e	-0.102047905
121	0xbdfd38d9	-0.123643585
122	0x3e9468c5	0.28986183
123	0xbca41de7	-0.02003379
124	0xbe208334	-0.1567505
125	0x3c59c7e0	0.013292283
126	0x3e5b8df1	0.21440865
127	0x3c8a350e	0.016871002
128	0xbb161f61	-0.0022906887
129	0xbe8ed61b	-0.27897725
130	0x3e903417	0.2816474
131	0x3e3a3c15	0.18186982
132	0x3eea9971	0.45820192
133	0xbe19612b	-0.14978473
134	0x3dc7c387	0.09754091
135	0x3dd26236	0.102726385
136	0x3dc67d1a	0.0969183
137	0x3db91e8e	0.09039031
138	0xbdecdb65	-0.11565284
139	0xbbcabc64	-0.0061870087
140	0x3dd78725	0.10523824
141	0xbdb38aed	-0.08766732
142	0xbd98b23c	-0.074558705
143	0x3e160bda	0.14652959
144	0x3ca5ecb8	0.020254478
145	0xbd7753e2	-0.06038273
146	0xbf021415	-0.5081189
147	0x3daa318d	0.08310232
148	0xbe21b13f	-0.1579027
149	0x3ea9c07c	0.33154666
150	0xbe9c1501	-0.30484775
151	0x3cd24308	0.025666729
152	0x3d03f5fb	0.032217007
153	0xbc244ca9	-0.010028043
154	0xbd9def62	-0.07711674
155	0xbe04b1e9	-0.12958492
156	0x3e7b90d5	0.24566968
157	0x3e401751	0.18758895
158	0xbe4101c3	-0.18848328
159	0xbc784512	-0.015153186
160	0x3dbeae61	0.09310604
161	0x3ecc7046	0.39929408
162	0x3e87164b	0.26384196
163	0x3e2d3af3	0.16917019
164	0xbef1621a	-0.47145158
165	0xbd132c6f	-0.035931047
166	0x3d7d16fe	0.061789505
167	0xbe70a54f	-0.2350056
168	0x3e8cbb8b	0.27486834
169	0x3e493f04	0.19652945
170	0x3e1a7106	0.15082178
171	0x3e3a39bb	0.18186085
172	0xbdd624dc	-0.10456249
173	0x3e705dfd	0.23473354
174	0x3e0310f4	0.12799436
175	0x3dc6486a	0.09681781
176	0x3dde75e0	0.108623266
177	0x3eb44488	0.35208535
178	0xbd5bac95	-0.053631384
179	0x3e2c3c47	0.16819869
180	0xbeb5fd0e	-0.35544628
181	0x3c0f1e45	0.008735244
182	0x3da55358	0.08072537
183	0xbe06b271	-0.13154007
184	0xbe90e4a3	-0.28299436
185	0xbe67b126	-0.2262617
186	0x3e2ee3dd	0.1707911
187	0xbe130491	-0.1435721
188	0xbe7641dd	-0.24048562
189	0x3d7dce9b	0.061964612
190	0x3dbb3923	0.09141757
191	0xbe52ec45	-0.20597942
192	0x3eb1a0c2	0.3469296
193	0xbdb42100	-0.08795357
194	0x3d13d34d	0.036090184
195	0xbe87e8c8	-0.26544785
196	0xbe8aa66f	-0.27080104
197	0x3eb4bb41	0.35299113
198	0xbc77e29e	-0.015129713
199	0xbe00ccad	-0.12578078
200	0x3e97e541	0.29667094
201	0x3e4b067a	0.1982669
202	0xbb0a5c12	-0.0021112007
203	0x3ec79cd6	0.38986844
204	0x3eba4316	0.36379308
205	0x3e8ee2f1	0.27907518
206	0x3dd72a1c	0.105060786
207	0xbe005bf8	-0.12535083
208	0x3e641a56	0.22275671
209	0xbe00ef4a	-0.12591282
210	0x3cf230ee	0.029564347
211	0x3e5410c7	0.20709525
212	0x3d521c1e	0.051296346
213	0x3e4abf92	0.19799641
214	0xbe6f84a8	-0.23390448
215	0x3d3c375c	0.045951232
216	0x3f07c850	0.5304003
217	0xbd2a11ff	-0.04152107
218	0x3e3168b7	0.17325102
219	0x3d195fdc	0.037444934
220	0x3dc13efb	0.09435841
221	0xbd7f6fe1	-0.062362555
222	0xbe8ce6a6	-0.2751972
223	0x3dde9596	0.10868375
224	0x3ee679a2	0.45014673
225	0x3ceddc5c	0.02903574
226	0x3d2f8762	0.04285372
227	0x3d13424d	0.0359519
228	0xbee53db4	-0.44773638
229	0x3ef55a54	0.47920477
230	0x3e4fdd0a	0.20299163
231	0xbde00785	-0.10938934
232	0x3df1fdd2	0.118159905
233	0x3e545b46	0.20737943
234	0x3e30ab36	0.17252812
235	0xbcbc9ff0	-0.023025483
236	0x3e8d094d	0.27546158
237	0xbe9bbcf3	-0.30417594
238	0x3debc11d	0.11511443
239	0x3ce28966	0.027653407
240	0x3c5f7970	0.013639793
241	0x3ea3cb20	0.3199091
242	0x3e3510f2	0.17682245
243	0x3df6a393	0.12042918
244	0x3e7414ce	0.23836061
245	0xbe06c0ee	-0.13159534
246	0x3dc49125	0.095979966
247	0x3dddb90f	0.10826313
248	0xbe4d602f	-0.20056222
249	0xbb858490	-0.0040746406
250	0x3dc4c4ab	0.09607824
251	0xbe88c361	-0.26711562
252	0xbe178512	-0.14796856
253	0xbda4b076	-0.0804147
254	0xbacf909e	-0.0015835946
255	0x3cfab3e1	0.030603351

output.bias f4 [4]
0	0x3ede80d3	0.4345766
1	0x3eace2e5	0.33766857
2	0x3e928ba0	0.2862215
3	0x3ea5356d	0.32267323
